assignment 2/ReLU_model.pth (torch, 56973 bytes, 62 tensors)

0.weight f4 [10, 784]
000000 4f b6 e3 3c cb cf 26 3d 89 29 28 3d 4b 1d 3d bc
       0.027796892 0.04072551 0.041055236 -0.0115426285
000010 63 bf b0 bc 88 05 96 3c ac 2c 9c 3c fe 09 06 3d
       -0.021575635 0.018313184 0.01906427 0.032724373
000020 b3 ff 26 3c fe 7c 51 3c 74 78 c4 3c 1d ab 12 3d
       0.010192799 0.012786148 0.023983218 0.035807718
000030 2e 84 1a 3c 19 59 a7 bb 72 0d 9c bc cb 79 f0 bc
       0.009430928 -0.005107057 -0.01904938 -0.02935495
000040 28 7e 24 3d 81 4a a5 3c dd 52 38 bc 96 ea e1 3c
       0.040159374 0.020177128 -0.011250225 0.02757768
000050 88 ac cb bb b6 6d ea 3c 36 09 84 bc 94 c5 fd 3c
       -0.0062156357 0.028616767 -0.016117673 0.030978002
000060 a8 f8 ba 3c e9 b7 b2 bc a0 5d b3 bc df bb 2e 3d
       0.022823647 -0.02181621 -0.02189523 0.042659637
000070 1b db b0 bc f0 13 3a 3d 0f 26 af bc c0 64 08 3d
       -0.021588853 0.04542917 -0.021380452 0.033299208
000080 e6 f9 d6 3c 1d f5 d6 bc a3 e1 8a 3c 3d eb 19 bd
       0.026242208 -0.026239926 0.016953295 -0.037577856
000090 23 99 4b 3c 98 c0 03 3d 63 b6 cd bc af d5 fa 3c
       0.012426647 0.032166094 -0.025111383 0.03061947
0000a0 78 ea 42 3d f6 bc 82 3c c4 78 ec bc 19 a9 51 3c
       0.047586888 0.015959244 -0.02886618 0.012796664
0000b0 80 9e e6 3c 54 99 c2 bb b3 f0 29 3d 12 0b 8b 3d
       0.02815175 -0.0059386883 0.041489314 0.06789221
0000c0 14 91 41 3b b7 84 6f ba bb d9 8b 3c 62 6f fc 3c
       0.0029535936 -0.00091369025 0.017071595 0.03081483
0000d0 3d a4 57 3c f5 e5 ba bc e6 5a 8a bc 45 ec 0d 3d
       0.013161716 -0.02281473 -0.016889047 0.034649152
0000e0 ef d3 48 3c 51 1a 25 bc 34 97 54 3c 83 3e f3 3c
       0.01225756 -0.010077075 0.012975503 0.029692894
0000f0 65 c7 24 3d d0 6a e2 bb ca bd b6 3c 79 31 9d 3c
       0.04022922 -0.0069097057 0.022307295 0.01918863
000100 ca 0f ad bc ec c9 f4 bc c7 c8 1d 3c ab d8 f3 bc
       -0.021125693 -0.02988144 0.009630389 -0.029766401
000110 9a da bd bc 10 5f 4a bd e1 16 b1 bd a7 a2 14 bd
       -0.023175526 -0.049407065 -0.08646942 -0.03628793
000120 50 17 c6 bc cb e8 f4 bc 72 68 c6 bc 7a e2 f8 bc
       -0.024181038 -0.02989616 -0.024219725 -0.03038143
000130 0f fa a6 bc 13 28 0b 3c 15 1f de bc e6 c1 b5 3c
       -0.02038291 0.008493441 -0.02711443 0.022187185
000140 68 cd 1f bb 73 d3 db b9 09 3a be 3b a6 f6 af bc
       -0.0024383906 -0.00041928477 0.005805258 -0.021479916
000150 d9 2d 32 3d f6 9a 3f bc b3 9d 7a bc 1c e1 d8 3c
       0.043500755 -0.01169466 -0.0152963875 0.026474528
000160 06 ed 33 bc 8c 43 36 bc 94 49 40 3b fb b3 45 3c
       -0.010981804 -0.011124503 0.002934073 0.0120668365
000170 57 48 c6 bc 1a f6 1a bd 1c 57 2f bd e8 86 21 3c
       -0.024204416 -0.037832357 -0.042807683 0.009858824
000180 b8 c3 2b bd 3f 09 54 ba c1 f9 3e ba 27 ea 9b bc
       -0.0419347 -0.0008088536 -0.0007285141 -0.019032551
000190 fc da 2b 3c 4e 23 91 bc 57 65 5e bd 02 4a 96 bc
       0.010489222 -0.01771703 -0.054295864 -0.018345837
0001a0 c9 27 25 bd 80 32 84 bd 77 51 94 bd a9 fd 08 bd
       -0.040321145 -0.064549446 -0.07242101 -0.033445034
0001b0 67 8e be 3c 4a fe e4 3c 04 08 18 3d 48 ae 82 3c
       0.023261262 0.027953286 0.03711702 0.015952244
0001c0 6f aa a0 bc 9a 2c b3 3c 62 fd 28 3a 97 bf 07 3c
       -0.01961252 0.021871854 0.00064464484 0.008285425
0001d0 34 16 e2 bb ec d4 db bc e5 d1 88 3c dc a8 fd bb
       -0.0068996195 -0.026834927 0.016701648 -0.007741077
0001e0 3e 77 8c 3b ba 96 80 3b ff 44 61 3a cf 90 23 bc
       0.0042866757 0.003924218 0.000859335 -0.0099832555
0001f0 bf f7 9d bc ec a3 8c bc da de 20 bb d7 73 b1 bb
       -0.019283174 -0.017168008 -0.0024546892 -0.0054154205
000200 0d 35 05 bd a8 15 60 3c 39 77 9e bc cc 91 a1 bc
       -0.032521296 0.013677038 -0.01934396 -0.019722842
000210 47 c0 44 bd f5 b3 bd bb 33 1e 4d 3c f2 d0 ce bc
       -0.048034932 -0.005789275 0.012519407 -0.025246117
000220 94 87 0d bd 6c 25 3c bd 64 63 a1 bc 89 2e 8b 3b
       -0.034553126 -0.045934126 -0.019700713 0.004247491
000230 db 74 df 3c 09 49 be 3b 41 bd 78 3c bd 61 35 3d
       0.0272774 0.0058070463 0.01518184 0.044282664
000240 fa e5 2b 3b 93 45 4d bd 00 8e 26 bc e7 bf 0d 3d
       0.0026229606 -0.05011518 -0.010165691 0.03460684
000250 28 20 cd 3c 09 c9 af 3a e4 cf 53 3c ca 4b 4f 3c
       0.025039747 0.0013411354 0.012927983 0.012652347
000260 fb d0 98 3c 5a 0b 29 3c 48 07 b2 3c f8 6c 01 3d
       0.018654337 0.010317648 0.021731988 0.03159806
000270 61 a8 13 3d e1 1c d0 3c 1f 80 0a 3c 2f 44 d1 3b
       0.03604925 0.025404396 0.008453398 0.006386302
000280 6f d3 d5 bc 51 9f fb 3c ba 29 68 3c 5e e3 fa bc
       -0.026101796 0.030715616 0.014170105 -0.030625995
000290 4d 06 1e bd a7 46 92 bd 8f 63 a7 bc fb 6d aa bc
       -0.038580228 -0.07142382 -0.020433215 -0.020804396
0002a0 e9 af 1b 3d 80 93 18 bd e0 7e 99 bc ae dd cc 3c
       0.038009558 -0.037250042 -0.018737257 0.025008049
0002b0 71 ec 26 bc e3 c9 cd bb 50 a4 57 3c 2e 6b b5 bb
       -0.010188208 -0.0062801703 0.013161734 -0.0055364585
0002c0 52 db 2f bc 49 2b 26 bd dc 6f d7 bc 18 1f 1f bc
       -0.010733442 -0.040568624 -0.026298456 -0.009712003
0002d0 8e 37 5d bc ae 46 2b 3c ca 6a 62 3c 28 a5 10 3d
       -0.013502015 0.010453863 0.013819406 0.035313755
0002e0 50 57 5a 3c 9a 38 96 3c 49 73 b9 3c ea 9c 55 bc
       0.013326481 0.018337537 0.02263798 -0.0130378995
0002f0 23 13 02 3d 54 37 03 bc 79 41 5e 3c d2 d6 a6 bc
       0.03175653 -0.008008797 0.013565415 -0.020366106
000300 59 d8 92 bd ce 2e a8 bd 62 48 24 bd ed 07 fc bc
       -0.07170171 -0.08212052 -0.040108092 -0.030765498
000310 1d ba 2b 3d 46 bc c7 bc 49 57 9a 3c cf d6 05 bc
       0.04192554 -0.024381768 0.018840449 -0.00816889
000320 fd f7 2c 3a af 80 95 3c 9f 40 96 bc 8c fd a9 bc
       0.00065982324 0.018249838 -0.01834136 -0.020750783
000330 ee 75 1b 3c 79 c3 6f 3c b7 86 57 bc c1 50 e9 bb
       0.009488566 0.014634007 -0.013154677 -0.0071202223
000340 11 c0 be 3c e9 22 e4 3b 27 1f b9 ba d7 96 3c 3d
       0.023284944 0.0069621694 -0.0014123664 0.04604229
000350 bb 81 58 3c 3b 2c 21 3d 03 dc ca 3c 67 cc c7 3c
       0.013214524 0.039348822 0.024763113 0.024389459
000360 33 05 ff b8 46 91 1a bc 94 e6 a6 3b 86 07 c8 bc
       -0.00012160316 -0.00943405 0.005093405 -0.02441765
000370 22 86 2b bc d6 4d 93 bd 2e 42 ab bc a4 d9 91 bc
       -0.0104689915 -0.071925804 -0.02090558 -0.017803974
000380 6c c9 22 3d 71 6e 1a bc 4e 77 6e 3c b3 88 ca 3b
       0.039742872 -0.009425745 0.014554812 0.0061808466
000390 92 b8 d8 3c 0a 9f 56 3c 73 08 6b bb b0 aa 28 3c
       0.026455197 0.013099441 -0.003586319 0.010294601
0003a0 81 fd d6 bc 19 b2 83 3b 83 d0 45 3b 70 84 91 bb
       -0.026243927 0.0040190336 0.0030184097 -0.0044408366
0003b0 e7 f5 c1 bc a8 0d b6 bc d6 49 5b 3c fb d2 00 3d
       -0.023676826 -0.022223309 0.013384303 0.031451207
0003c0 99 be 3a 3d e1 23 74 3d 01 0b a0 3c 5b af dd 3c
       0.045591924 0.05960453 0.019536497 0.027061155
0003d0 da e0 7f 3c 4a d9 15 3c bd 18 5b bc 86 74 3d 3c
       0.015617574 0.009146044 -0.013372597 0.011563426
0003e0 e7 a8 4d bd c8 89 51 bd 0e c9 00 3c be ea ec bc
       -0.050209906 -0.05115679 0.007860435 -0.028920528
0003f0 27 67 cf bc 11 7d 4f bb 3c ab dd bc 8d 4c 94 3d
       -0.025317742 -0.0031660239 -0.02705919 0.072411634

0.bias f4 [10]
000000 d3 f9 ac bc c1 29 6e bc 1f cf 03 bc 57 22 0f 3c
       -0.02111522 -0.014536322 -0.008044987 0.008736215
000010 63 89 a6 3b 14 fb 57 3d e3 79 b2 bc 40 a4 83 3c
       0.0050822957 0.05272968 -0.021786636 0.016069531
000020 6f d7 22 3c ac ea 43 3c
       0.009939059 0.011957806

1.weight f4 [10]
000000 62 71 72 3f 26 59 79 3f 8a ea 80 3f de 50 75 3f
       0.9470426 0.97401655 1.0071576 0.9582652
000010 b0 e7 84 3f 26 a6 78 3f ca b0 7b 3f 55 a2 7e 3f
       1.0383205 0.9712852 0.98316634 0.9946645
000020 e8 76 89 3f e4 25 86 3f
       1.0739412 1.0480313

1.bias f4 [10]
000000 76 f9 5b bd 77 18 8e 3c e1 93 0e bd 5a b7 a9 bd
       -0.0537047 0.01734565 -0.034808997 -0.08286925
000010 f5 c1 8d bd 3b 1d 58 3c 38 c6 d1 bc 1e 4d 01 3e
       -0.0692176 0.013190563 -0.025607213 0.12627074
000020 e1 b8 03 bc 33 1c 0a 3c
       -0.008039684 0.008429575

1.running_mean f4 [10]
000000 d4 fb f1 3f 12 eb 46 40 22 e2 f1 3f 40 48 28 bf
       1.8904977 3.1080976 1.8897135 -0.65735245
000010 af b2 1b bf 5f 17 8d bf 43 56 1a 40 2e 04 a5 3f
       -0.60819525 -1.1022757 2.411515 1.28919
000020 e4 af b0 c0 f5 4f 42 c0
       -5.521471 -3.0361302

1.running_var f4 [10]
000000 07 11 82 3f c6 6e d3 3f fa 34 a6 3f f3 b7 72 3f
       1.0161446 1.651818 1.2984917 0.94811934
000010 78 d0 90 3f 9a 93 82 3f e3 6b 8e 3f 31 c6 9a 3f
       1.131362 1.0201294 1.1126674 1.2091733
000020 43 56 af 3f a9 fc 86 3f
       1.36982 1.0545856

3.weight f4 [10, 10]
000000 a0 e2 2f 3e 0d d6 84 3d 08 56 be 3b 4e 6f 87 3e
       0.17176294 0.064861394 0.0058085956 0.26452106
000010 a2 36 28 be 52 88 4b be c6 62 63 be 79 6a 51 be
       -0.16427091 -0.19876221 -0.22205648 -0.20450772
000020 4b 9b 79 be 77 ce 9e 3c 3e a7 2c be 94 15 04 3e
       -0.24375646 0.01938556 -0.16860673 0.12898856
000030 d8 96 ce bc 45 11 69 3e 23 1b c0 be eb 7f 87 be
       -0.025218412 0.22760494 -0.37520704 -0.2646478
000040 d1 6c 53 3e 22 f0 91 3e ed ce 5d be fb 95 d6 be
       0.20646979 0.2850352 -0.21660967 -0.419113
000050 f5 c9 3a 3d 0e bc 9a 3d d4 e1 93 be a8 df 32 3d
       0.045602757 0.075554 -0.2888323 0.043670326
000060 36 5e 91 3e 16 2f 90 3e 3f 8a 39 3d 5e 85 3d 3d
       0.2839219 0.28160924 0.045297857 0.046269767
000070 62 50 3e be 7f 33 e4 bd ab 24 b4 3e 03 12 33 3e
       -0.18585351 -0.111426346 0.35184225 0.1748734
000080 ed 88 22 3e aa a4 41 be 88 f1 19 be bd 49 30 3e
       0.15872546 -0.1891047 -0.15033543 0.17215629
000090 25 0f 15 be b8 6d 23 be d9 af 08 3d 1d aa ef bc
       -0.14556558 -0.15959823 0.033370826 -0.029255921
0000a0 9d e2 7b be 3a ef ba be 4f 20 87 3d 23 a7 99 bc
       -0.24598165 -0.3651064 0.06597959 -0.018756455
0000b0 0a ad 61 3d 94 ae 55 be dc 32 3e be 2e a4 9a 3e
       0.055096664 -0.20867378 -0.18574089 0.30203384
0000c0 9a ce 00 3d f4 78 79 3e e5 92 0b be 36 47 4c 3e
       0.03144703 0.24362546 -0.13630255 0.1994904
0000d0 5a 00 17 3d 46 e1 35 3e 51 75 21 be a7 57 61 3e
       0.03686557 0.17761716 -0.15767409 0.22006093
0000e0 9d 92 26 3e 1e 5c 84 be d2 13 9c be 4d b5 8f 3d
       0.16266866 -0.2585153 -0.30483872 0.07017002
0000f0 3f 5d 95 3e 04 c5 87 3e 5a 11 b3 3e 70 07 a9 3d
       0.29172704 0.26517498 0.34974176 0.08253372
000100 d8 fa 00 be ef c3 31 3d 30 8f 34 3e 03 15 c1 3d
       -0.1259569 0.043399747 0.17632747 0.09427836
000110 b5 54 bf be 53 dc 28 3e e2 80 02 bd d7 77 6f 3e
       -0.37369314 0.16490297 -0.031861193 0.23385559
000120 82 ac 2f bc 8f 0c 19 bd db 0f 6b be db 0f 7e 3b
       -0.010722281 -0.037365492 -0.22955267 0.0038766775
000130 37 e7 19 3e 11 7b 33 3e c3 ee 83 be 2d 11 46 be
       0.15029608 0.17527415 -0.25768098 -0.1934249
000140 75 30 12 bd 18 c4 20 3e 6b 12 5f 3c 78 22 59 be
       -0.035690743 0.15699804 0.013615231 -0.21204555
000150 78 73 86 3d b0 d5 10 3e eb 7c eb bd bd cb e0 bd
       0.06564993 0.14144015 -0.114984356 -0.1097636
000160 43 d5 65 3e 21 a3 d2 bd a8 63 15 be 76 59 81 3d
       0.22444634 -0.102850206 -0.14588797 0.063158914
000170 31 0c 1b 3e 64 da 4a 3e ae 10 46 3d 47 b4 3e 3e
       0.1514137 0.19809872 0.04835575 0.18623458
000180 4d 5d bb be f5 82 7b be 37 f2 a1 bc a9 ba 94 bd
       -0.3659462 -0.24561675 -0.019768817 -0.07262165

3.bias f4 [10]
000000 75 f0 89 be 70 c7 66 be 69 22 03 3e 30 ce 94 be
       -0.26941267 -0.22537017 0.12806095 -0.2906356
000010 68 b5 f5 3c 77 e3 83 3e d4 86 83 3e db 3b 70 3c
       0.029993728 0.2575948 0.25688803 0.014662708
000020 13 10 79 be b6 54 03 be
       -0.24322538 -0.12825283

4.weight f4 [10]
000000 d0 76 7f 3f 59 0b 88 3f a6 a1 7e 3f aa e1 6b 3f
       0.9979067 1.0628463 0.99465406 0.9214121
000010 5d ad 65 3f cc 23 6f 3f f6 cf 80 3f f5 58 7a 3f
       0.89717656 0.93413997 1.0063465 0.9779199
000020 ca 5d 8b 3f 04 eb 86 3f
       1.0887997 1.0540471

4.bias f4 [10]
000000 f1 17 55 3d 0f da 62 bc c6 11 0b 3e 49 8a 03 3d
       0.052024785 -0.0138459345 0.13580999 0.0321143
000010 1c 94 a6 3d 88 90 e6 bc d7 3e 76 bc f7 92 53 3d
       0.08133718 -0.02814509 -0.015029631 0.05165383
000020 ac 6d bb 3d 5f 91 94 bc
       0.091517776 -0.018135725

4.running_mean f4 [10]
000000 96 a8 01 bf c1 59 ef be 14 2b 56 3e 6f 38 68 be
       -0.50647867 -0.46748164 0.2091487 -0.22677778
000010 95 99 75 bd 10 77 72 3e ce f8 1e 3f 34 38 78 bd
       -0.05996092 0.23678231 0.62098396 -0.060600474
000020 46 f8 67 be a5 75 6d be
       -0.22653303 -0.23189409

4.running_var f4 [10]
000000 f6 16 1e 3e 76 f8 82 3e 00 31 f2 3d a5 f3 18 3e
       0.15438446 0.25580186 0.11825752 0.14936693
000010 86 27 41 3e c2 8c 35 3e c6 25 84 3e da ad ce 3d
       0.18862733 0.17729476 0.2581007 0.10091753
000020 d3 cc 39 3d 2c 5a e7 3d
       0.04536135 0.11296496

6.weight f4 [10, 10]
000000 54 5a 7a 3e 75 be d9 3d ed 4e 9f 3c c9 0e 43 bd
       0.2444852 0.1063203 0.019446814 -0.047621522
000010 a3 fe cd 3d 1f 57 e9 bd 3a d4 fa 3d a2 4b 5e be
       0.10058334 -0.1139357 0.1224751 -0.21708539
000020 95 7c e7 be 65 ce 0d be 62 ba 67 3e c3 93 56 be
       -0.45212236 -0.13848265 0.22629693 -0.20954804
000030 d0 88 ad 3e d0 88 50 be 39 e8 15 bc 38 de 73 3e
       0.33893442 -0.2036469 -0.0091496045 0.23815238
000040 d8 87 42 be 9a c6 67 be 63 20 1a 3d 3e 9c 1b 3d
       -0.18997133 -0.22634354 0.037628543 0.0379908
000050 b5 e9 64 be 39 28 1d 3e 16 c4 c5 3d 02 43 2e be
       -0.22354777 0.15347375 0.09656541 -0.17017749
000060 17 78 27 be cc 15 2a 3e 0f 15 26 3e c2 76 66 bd
       -0.16354404 0.16609877 0.1621897 -0.0562656
000070 61 99 32 be 8a eb 7c be 6d 07 14 3e 5f d9 b3 3d
       -0.17441322 -0.24699226 0.14455958 0.087816946
000080 b0 07 62 3e c9 95 2c 3d af c4 4a be 75 1a 5e bd
       0.22073245 0.042135034 -0.19801591 -0.05422445
000090 e6 47 d2 bd 95 9a 47 3e 91 50 7e bd aa ab 95 3d
       -0.1026762 0.19492562 -0.062088553 0.07308133
0000a0 61 4b 8d bd f6 e7 74 be 92 0c a4 3d e0 e4 81 3e
       -0.06899143 -0.23916611 0.0801021 0.2536993
0000b0 01 98 8b 3d f2 f4 7d 3e 31 22 55 bc 0b d2 92 3e
       0.06816102 0.2480047 -0.01300864 0.28675875
0000c0 89 38 83 bd 45 c9 30 be dd 86 12 be b3 1d 2d be
       -0.064072676 -0.17264278 -0.14309259 -0.1690586
0000d0 2b a4 e3 3e d1 fa f2 3d 9d 8f 87 bd de 57 83 3d
       0.44461188 0.11864246 -0.06619189 0.06413244
0000e0 f8 9d 12 be be d3 c7 3d da ae 05 be de 13 39 3d
       -0.14318073 0.097571835 -0.13054982 0.045184962
0000f0 dc 6c 70 3d 54 de 56 3d ff b8 bd bd 5c 11 7c be
       0.058697566 0.052458122 -0.09263801 -0.24615997
000100 fe 9f 23 be d3 cf 82 3e 1f 05 98 bb 1b 9a 2e bd
       -0.15979001 0.25549182 -0.0046392824 -0.042627435
000110 57 83 4b be 5e 83 40 3e c8 d0 55 3d 5a 70 7c be
       -0.19874321 0.18800113 0.052201062 -0.24652234
000120 78 31 e1 bd a5 67 42 bd 7b a7 c8 b8 57 e2 2a be
       -0.109957635 -0.047462124 -9.567939e-05 -0.16687904
000130 de dd 0e bd 65 b7 0f be 9e b2 b3 3e c4 08 33 be
       -0.034879558 -0.14034803 0.35097212 -0.17483813
000140 d7 15 24 be 14 b3 54 be 90 95 f5 3d 96 4d 50 3e
       -0.16023956 -0.20771438 0.119914174 0.20342097
000150 d4 63 9e be b2 b5 4f 3e 78 5b dc 3d b6 81 a8 3d
       -0.30935538 0.20284155 0.10759634 0.082278654
000160 25 15 56 be d7 a6 6f be af fe d0 3d a4 c5 d3 bc
       -0.20906503 -0.23403488 0.10204827 -0.025851078
000170 e8 df 3e 3c 0c 1c 6a 3e e7 65 ce 3d c7 d1 60 be
       0.011650063 0.22862262 0.1007803 -0.21955024
000180 29 91 41 3e 6f 0f 2d be 13 27 65 be 5b 8f 92 3e
       0.1890303 -0.16900419 -0.22378187 0.28624997

6.bias f4 [10]
000000 c7 15 26 3d b6 db 10 be dd e4 80 3d 90 08 f7 3c
       0.040548112 -0.14146313 0.06293652 0.03015545
000010 be 14 08 3e 43 9f a2 3d a7 1f 3d be 73 e9 8e be
       0.13289163 0.07940533 -0.18469106 -0.27912483
000020 6d 75 2d be 53 e0 85 3e
       -0.16939326 0.26147708

7.weight f4 [10]
000000 cb fb 82 3f 06 2f 69 3f c4 f3 7a 3f 25 e5 72 3f
       1.0233091 0.9108738 0.98028207 0.94880897
000010 3b 5b 6e 3f 4f 30 7e 3f ea 68 7e 3f a4 04 85 3f
       0.93107957 0.99292463 0.99378836 1.0392041
000020 3f eb 87 3f 0d e7 88 3f
       1.0618666 1.0695511

7.bias f4 [10]
000000 3d 56 c1 3d c4 c6 58 bc 51 e6 bf 3c 00 6a 26 3c
       0.09440277 -0.013230983 0.023425253 0.010157108
000010 a5 07 8e 3c ed 6c 8c bc 4d 5f 75 3d 58 67 c6 3d
       0.01733763 -0.017141784 0.05990534 0.0968768
000020 0d f3 f6 3d 1a b5 29 3d
       0.12058077 0.041432478

7.running_mean f4 [10]
000000 cf bc 12 be 86 ce e6 bd bc 4c 12 be ea 3e 46 3e
       -0.14329837 -0.1126986 -0.14287084 0.19359937
000010 01 bf 85 3e e6 d0 07 3e 6a 30 8c be 15 32 f2 be
       0.26122287 0.13263282 -0.27380687 -0.47303835
000020 56 28 be be cf c6 b7 3e
       -0.3714015 0.35893866

7.running_var f4 [10]
000000 e0 86 3b 3e 7b 27 2c 3e 8d 2e b7 3d 57 8f 9d 3d
       0.1831317 0.16811936 0.08944426 0.076933555
000010 7f 76 8e 3d c8 6d f1 3d af a2 0f 3e 38 1b 21 3e
       0.06956195 0.11788517 0.14026903 0.1573304
000020 21 c3 0d 3e 29 05 25 3e
       0.13843967 0.1611525

9.weight f4 [10, 10]
000000 44 2a e4 be b6 ca 9f 3d bb 09 89 3d 43 8d 9e bc
       -0.44563496 0.07802336 0.06691309 -0.019354468
000010 77 c0 83 3e 63 60 f1 bd 70 22 68 3d 9f f2 ca 3d
       0.25732777 -0.117859624 0.056673467 0.099095576
000020 79 02 a5 bd 85 a7 af be 69 5b ce bd 1d 46 a1 3e
       -0.08057112 -0.34307495 -0.10076029 0.31498805
000030 54 16 78 3e ed 97 6a be 95 0c 5c bd 70 90 10 be
       0.24227268 -0.22909518 -0.053722937 -0.14117599
000040 2c e7 b6 bc d7 2a 13 be 53 67 36 3e 91 58 8a 3e
       -0.022327028 -0.14371811 0.17812853 0.27020696
000050 aa 84 64 bd bc ba 53 3d 9f 9c bf bc 78 60 9e bb
       -0.05579058 0.051691756 -0.023390112 -0.0048332773
000060 2a 9c 4a bd 15 3d 29 be e2 63 42 be c1 60 3c be
       -0.049465336 -0.16527207 -0.18983415 -0.18396284
000070 d9 9e 1e be 9d ee e9 3d b6 2b a3 be da 1f a4 3d
       -0.15490283 0.11422465 -0.31869286 0.08013888
000080 c1 05 76 be 35 cc 74 bc 10 09 49 3e c9 f3 b5 3e
       -0.24025632 -0.014941265 0.19632363 0.35537556
000090 bb 7e 70 3e 89 46 9d bc e0 6d 0e be 8b 6d ab bd
       0.23485844 -0.019198673 -0.13909101 -0.08370503
0000a0 02 7b 00 3e 0e 3c 2b be a4 4d db bd c4 b3 10 be
       0.12546924 -0.16722128 -0.10708168 -0.14131075
0000b0 26 af 72 3e 8d b9 c9 bd 1d d5 94 be 7e 55 99 3e
       0.23699626 -0.09849844 -0.29068843 0.29948038
0000c0 b7 28 2e 3e 37 05 78 3e 20 b7 13 3c cc 5d 05 be
       0.17007719 0.2422074 0.009015828 -0.13024062
0000d0 74 64 09 be a1 d4 ea 3d ce a7 b9 bd 38 f9 26 3e
       -0.13417226 0.11466337 -0.09065209 0.16306007
0000e0 ce 6b 63 3e 69 30 58 be b0 7d 8c be 01 de ab 3d
       0.22209093 -0.21112217 -0.27439642 0.08391953
0000f0 c0 01 04 be 8b 31 17 be 36 d9 af 3c 20 90 e7 bd
       -0.12891293 -0.14764993 0.021465879 -0.113067865
000100 2d 9e 68 bc 36 8d a0 3d 45 ed f0 bd 7f 01 bf 3d
       -0.014197868 0.07839434 -0.117640056 0.09326457
000110 5b 91 2f be e7 ee 98 bd 64 25 7f 3e c0 fa 91 bd
       -0.17145292 -0.07467442 0.24916607 -0.07127905
000120 e2 ba 79 3e 14 ba 79 be ca 8f 42 3e de e6 07 3c
       0.24387696 -0.2438739 0.19000164 0.008294789
000130 6c 2b ee bd 2d 9c c6 be 7b 6e 9f 3e 52 26 3b be
       -0.11629376 -0.38791028 0.31138977 -0.18276337
000140 ce 2b c7 3c 00 c3 b2 3d 06 c1 92 bd 44 5e 22 be
       0.02431288 0.087285995 -0.071657225 -0.15856272
000150 88 66 1f 3e ce 27 8b be 08 8a 80 be 38 bb 19 3e
       0.15566456 -0.27178806 -0.2510531 0.15012825
000160 26 4f b5 3e 08 72 9a 3e f2 19 6c be 68 26 33 3d
       0.35411948 0.30165124 -0.23056772 0.0437378
000170 b3 fc 5b be 6b 3e e1 3d 62 7d a5 3d d3 21 51 be
       -0.21483116 0.109982334 0.080805555 -0.20423059
000180 af 49 7c 3e 96 b3 72 be a2 8b 29 3e 77 5c 21 be
       0.24637483 -0.23701319 0.16557172 -0.15757929

9.bias f4 [10]
000000 71 70 26 3d e3 70 0c be 9d e1 99 3e 50 9f 90 be
       0.040634576 -0.13714938 0.30054942 -0.28246546
000010 e9 a9 4f be 26 89 85 bd 2f 84 01 3a d9 a6 ac bd
       -0.2027966 -0.065202996 0.00049406564 -0.08430261
000020 49 99 2b be f2 7f 01 3d
       -0.16757692 0.03161616

10.weight f4 [10]
000000 12 9f 7f 3f 3f 0a 78 3f ec 15 6c 3f 76 81 7c 3f
       0.998521 0.96890634 0.9222095 0.9863504
000010 2d d5 85 3f 68 6a 77 3f d3 a1 88 3f a1 5a 7d 3f
       1.0455681 0.9664674 1.0674385 0.98966414
000020 ab 4c 81 3f bd 1f 87 3f
       1.0101522 1.0556561

10.bias f4 [10]
000000 f0 91 af 3d 89 70 87 3d 43 26 c9 3c dd e6 64 3d
       0.08572757 0.06613261 0.024554377 0.05588423
000010 3f 49 8c bc 0a d9 a2 bd 40 a4 9b bc 1a 67 e4 3c
       -0.01712477 -0.07951553 -0.018999219 0.027881194
000020 a5 10 0c bc ab be 35 3c
       -0.00854889 0.011092822

10.running_mean f4 [10]
000000 f3 ea 45 be 5d b1 80 bc 91 03 46 3c 44 d1 9f be
       -0.19327907 -0.015709573 0.012085811 -0.31214345
000010 10 b1 82 bd 2d 89 37 be 52 20 7b be 04 c7 63 bd
       -0.06381428 -0.17923422 -0.24524048 -0.055609718
000020 b1 b1 34 bc 2a 5a 0f be
       -0.011028693 -0.13999239

10.running_var f4 [10]
000000 e4 cd 44 3e 81 cd 01 3e 04 24 44 3d e6 ec 1a 3e
       0.19219166 0.1267605 0.04788591 0.15129432
000010 15 d5 89 3e 6b 19 0a 3e fc c4 7a 3d e6 e4 b4 3e
       0.2692038 0.13486259 0.061223015 0.35330886
000020 86 64 92 3e f1 f8 c9 3d
       0.28592318 0.09861935

12.weight f4 [10, 10]
000000 de 60 24 3e 37 ef 89 bd f8 ce 07 3e 29 35 11 be
       0.16052577 -0.0673508 0.13262546 -0.14180435
000010 a4 38 7a be e2 0a 91 3e 62 fe af be d6 e5 3b 3e
       -0.24435669 0.28328615 -0.34373766 0.18349394
000020 a7 f7 d8 3c 75 7b 97 3e 9b b3 07 3e 16 73 69 be
       0.026485277 0.29586378 0.13252108 -0.22797808
000030 0e 34 80 bd b5 e1 2c 3e 3a 87 77 3d 1a e2 d6 bc
       -0.06259929 0.16882975 0.060431696 -0.02623086
000040 32 01 e6 3d 53 37 70 be 68 97 2c be af 97 8d be
       0.11230697 -0.23458605 -0.16854632 -0.27654788
000050 0e a9 2c 3e 30 ac 4c bd 50 f9 60 be fc 4f 62 3e
       0.16861364 -0.0499689 -0.21970105 0.22100824
000060 09 5c 61 bd ff df a0 be 94 fa 19 3d cd c7 2f 3e
       -0.055019412 -0.31420895 0.037592486 0.17166062
000070 c2 31 af bd aa f4 9a bd 00 6c 40 be f4 b0 0c be
       -0.085544124 -0.07566197 -0.18791199 -0.13739377
000080 a9 08 28 bc f5 53 5c 3e cf be 81 3e a5 c2 87 3d
       -0.010255971 0.21516402 0.25340888 0.066289224
000090 36 04 dc bd 39 8b 99 3e 7f 1c bb 3e d5 1f 78 3e
       -0.10742991 0.2998903 0.36545178 0.24230893
0000a0 e8 bd 91 3e b8 f1 73 be e1 28 38 3e ac fa 45 be
       0.284652 -0.23822677 0.17984344 -0.19333905
0000b0 60 09 70 be 4b a6 98 3d 0a 67 0f 3d 9a 3a 49 3e
       -0.23441076 0.07453593 0.035010375 0.19651261
0000c0 f1 f9 da 3d 2e d2 07 3c 24 40 24 3e 05 13 40 3e
       0.10692204 0.008289857 0.16040093 0.18757255
0000d0 0b 6f 15 be 77 0c ac be 7c af 9e 3e 9b 7c 13 3e
       -0.14593141 -0.3360326 0.3099326 0.14403002
0000e0 45 c8 44 be 71 4e b1 bd 04 63 eb 3d 55 c2 cc bd
       -0.19217022 -0.0865754 0.11493495 -0.099980034
0000f0 ef 37 e3 bc fa 44 53 be c0 33 5f 3d 38 32 7b bd
       -0.027736632 -0.20631781 0.054492712 -0.06132719
000100 7e 5d c3 bd 48 6e dc ba f4 4c 4e 3e 81 38 5b bd
       -0.095393166 -0.0016817534 0.20146543 -0.053520683
000110 24 ab a9 3e 25 ab 91 3e 68 75 a8 3d 5c 3e af 3b
       0.33138382 0.28450885 0.082255185 0.00534801
000120 6e b3 44 be b6 43 bd bd 23 6e 88 3e b0 23 97 bd
       -0.19209072 -0.092414305 0.26646528 -0.07379854
000130 42 37 68 be a1 0b 84 3c db b3 4c 3d 50 40 df 3d
       -0.22677329 0.016118826 0.04997621 0.109009385
000140 f1 38 72 be 6c 97 a1 3e 1f d0 26 3d 75 c8 8e 3e
       -0.23654534 0.31560838 0.040725823 0.27887312
000150 5b 95 eb 3c 67 d0 63 3e 12 58 a8 bd 84 38 41 be
       0.028757742 0.22247468 -0.08219923 -0.18869215
000160 75 89 cc 3d 48 43 f7 bd cb 08 b9 3d 7e cb 33 be
       0.09987155 -0.1207338 0.0903488 -0.17558095
000170 d4 d9 6d 3d b4 73 64 3e d8 4a 8f bd 9b 93 12 3e
       0.058069065 0.22309762 -0.06996697 0.1431412
000180 d7 76 fb bc 70 0f 91 be 0e 17 84 3c e2 27 b5 bc
       -0.030696316 -0.2833209 0.016124275 -0.022113744

12.bias f4 [10]
000000 bf 1b 42 be 78 ad 16 be 0f ec 50 be f0 0f 80 bd
       -0.18955897 -0.1471461 -0.20402549 -0.0625304
000010 16 57 ac 3d 4e ea de bc ce 0e 68 3e 62 83 9b bd
       0.08415048 -0.027211335 0.22661898 -0.07593419
000020 65 33 1e 3e e7 79 79 3e
       0.15449293 0.24362908

13.weight f4 [10]
000000 35 58 81 3f 6c 9f 81 3f da 8c 87 3f fe b6 65 3f
       1.0105044 1.0126777 1.058986 0.8973235
000010 84 5f 7f 3f e0 1f 7c 3f ae 37 83 3f 15 7f 87 3f
       0.9975512 0.9848614 1.0251367 1.0585657
000020 83 11 72 3f 83 20 7f 3f
       0.9455797 0.99658984

13.bias f4 [10]
000000 e3 51 72 3b ac a0 a9 bc 83 08 1d 3d 9c 1b 9b bc
       0.0036975078 -0.020706497 0.038338196 -0.018934064
000010 5e 88 b5 3d 4f 71 e7 3c 9b ed 31 bb a5 24 2c bd
       0.088639006 0.028252272 -0.002714968 -0.042027134
000020 e5 97 56 bd 64 6c b6 3d
       -0.05239095 0.089073926

13.running_mean f4 [10]
000000 fc 38 a1 bd d3 ae b8 be f9 8a 83 be 19 d7 a0 3e
       -0.07872197 -0.3607088 -0.25691965 0.31414106
000010 c4 da 28 3e 73 0d 97 bc 48 98 c6 3e 1e 39 bb bd
       0.16489702 -0.01843903 0.38788056 -0.091417536
000020 c7 47 8a 3e cd 70 53 3e
       0.27007887 0.20648499

13.running_var f4 [10]
000000 2b c7 88 3e fd 69 60 3e e6 df 08 3e 46 2e 86 3e
       0.26714453 0.21915431 0.1336666 0.2620718
000010 83 ca a4 3d db cf 6d 3e 45 55 57 3d 2b e9 c5 3d
       0.080464385 0.23223822 0.052571554 0.09663614
000020 ec 67 2d 3e 1a d3 19 3e
       0.16934174 0.15021935

15.weight f4 [10, 10]
000000 fa 7f 06 be ba 7b 87 be 60 9d a0 3e 38 bb 14 be
       -0.13134757 -0.26461583 0.31370068 -0.14524543
000010 52 4c 31 3d 05 4d ff bd fa 31 46 3e 73 3a b7 bd
       0.043285675 -0.12465862 0.19355002 -0.08946695
000020 5c 2a 90 be f3 56 70 3e f0 6c 3c 3e fa 77 93 bd
       -0.28157318 0.23470668 0.18400931 -0.07200618
000030 60 89 60 3d e6 17 15 bc 1c 02 1e be ce 26 67 bd
       0.05481851 -0.009099936 -0.15430492 -0.05643349
000040 58 2f fb bd 63 01 82 be ee d5 1d 3e 90 27 5b 3e
       -0.122648895 -0.25391683 0.15413639 0.2140181
000050 12 39 fd bd a4 be 81 3d 8d ac 81 3e b3 9b 32 3e
       -0.12364401 0.0633519 0.25326958 0.17442207
000060 8c 95 69 bd 0c 20 a1 be 0a a1 87 be 4b ce 6a 3e
       -0.057027385 -0.31469762 -0.2649005 0.22930257
000070 14 5b 3b 3e 5f c8 24 3e 82 d8 53 be c3 a9 97 ba
       0.18296462 0.1609206 -0.2068806 -0.0011570979
000080 53 34 20 be 4c b8 dc bd 4d a0 ea bd 23 c2 90 3e
       -0.1564496 -0.10777339 -0.11456356 0.28273115
000090 73 1a 66 3e 69 ff 81 3e a2 f2 ba 3c 5d 94 95 be
       0.22471027 0.25390175 0.022820774 -0.29214755
0000a0 5d 73 2f 3e 07 fc 00 3e 25 37 7c 3d ae 7a ba 3d
       0.17133851 0.12596141 0.061576027 0.091054305
0000b0 1b 99 5d 3e cb 11 2f 3e 8c 16 97 be 8d 15 d0 3d
       0.21640436 0.17096631 -0.2950939 0.101603605
0000c0 21 15 4a be 1e 61 aa bd 17 12 b6 be b2 7b c6 3c
       -0.19734623 -0.08319305 -0.35560676 0.024228904
0000d0 84 b2 b5 be 7f ab e3 3d 1a ca c2 bc 0b 7b 59 3d
       -0.3548776 0.11116695 -0.02377801 0.05309586
0000e0 24 54 15 bd 85 16 61 3e b3 c6 14 3e 15 9b 00 3c
       -0.036457196 0.21981247 0.14528923 0.007849474
0000f0 91 21 87 3e c5 40 bf bc c4 76 05 3e f1 a3 87 bc
       0.26392797 -0.023346314 0.13033587 -0.016557666
000100 01 48 30 3e 0c 05 9d 3d be c8 1e bc c0 f6 34 3e
       0.17214967 0.07666978 -0.009691415 0.17672253
000110 4a 0f 3c 3c 3d 9d 88 be 16 1f 1b 3e dd 5f f3 bc
       0.011478255 -0.26682463 0.15148577 -0.029708797
000120 5a 9c c8 be 3b 1d 9c bd af 8c 06 3e bf bd 72 3d
       -0.39181787 -0.07622763 0.13139604 0.059262987
000130 9b b7 8d bb 38 ef 17 3e f2 70 ab bd 7f 01 81 be
       -0.004324866 0.14837348 -0.08371152 -0.25196454
000140 3f 0e 19 be a2 5d 1c 3e f5 cb d7 bd 5c 37 79 be
       -0.1494684 0.15270093 -0.105369486 -0.24337524
000150 78 0e 76 3e 04 e6 3d 3e ff ec a8 3d cb 0a d8 bb
       0.24028957 0.18544775 0.082483284 -0.0065930835
000160 61 86 4c be e2 76 cb bc 9e 5c 14 3e 19 40 83 be
       -0.19973136 -0.024836961 0.14488456 -0.2563484
000170 fd 23 2f be 67 9e 7c 3d 0e 0c 6b 3e 57 fb 51 be
       -0.17103572 0.0616745 0.22953817 -0.20506035
000180 f1 b2 b7 3e ec 16 94 3c b9 30 a2 be de dc 89 3e
       0.3587871 0.018077336 -0.31677797 0.2692632

15.bias f4 [10]
000000 36 2c be bd b0 71 42 be 96 bd 53 be 1b 62 ee bd
       -0.09285776 -0.18988681 -0.2067779 -0.11639806
000010 f5 48 b2 3d d6 11 88 3e f9 20 e0 bd 01 73 bf 3d
       0.08705322 0.26576108 -0.10943789 0.09348107
000020 0d 10 72 b9 41 e7 21 3e
       -0.00023084898 0.15810873

16.weight f4 [10]
000000 9b 2f 6c 3f a5 58 7a 3f 29 d0 81 3f e2 2c 7d 3f
       0.9226014 0.9779151 1.014165 0.9889661
000010 52 54 82 3f 9c 18 75 3f c9 0c 8a 3f b1 5a 83 3f
       1.0181983 0.95740676 1.0785152 1.0262052
000020 54 72 86 3f 4d 8e 83 3f
       1.050364 1.0277802

16.bias f4 [10]
000000 57 40 5d 3c 1c 54 4f 3d df f8 e6 bb f0 87 58 bd
       0.013504109 0.050617322 -0.0070487107 -0.052864015
000010 6e 3b e5 3d eb 33 eb 3c 34 96 14 bd e3 71 a6 bd
       0.11192976 0.02871128 -0.036276057 -0.08127191
000020 b2 b3 2a bc 67 9f 45 3c
       -0.010418819 0.01206193

16.running_mean f4 [10]
000000 59 a7 ff bd 30 ed 4d be 97 61 c1 bd af 8f 40 be
       -0.12483091 -0.20110011 -0.09442442 -0.18804811
000010 2c aa 5d 3e b5 fc 05 3e 59 fb bf 3d c9 a3 7e bd
       0.21646947 0.13084681 0.09374113 -0.062167916
000020 44 94 40 bc 61 6f 82 3e
       -0.011754099 0.254756

16.running_var f4 [10]
000000 24 af 41 3e bf 94 ed 3d 11 28 10 3e 61 89 7f 3e
       0.18914467 0.11600637 0.14077784 0.2495475
000010 98 a9 c7 3d 29 dc 69 3e 77 25 04 3e ca 9a 23 3e
       0.09749144 0.2283789 0.12904917 0.15977016
000020 76 d0 8d 3d 63 39 98 3e
       0.069245264 0.29731283

18.weight f4 [10, 10]
000000 73 f7 3a 3e d2 b6 1f 3e 21 3e ee 3d d9 de 4a be
       0.18258457 0.15597084 0.11632944 -0.19811572
000010 d4 74 1b 3e 52 de b2 bd 23 8a e8 bb 8f b2 c5 3d
       0.15181285 -0.087338105 -0.0070965453 0.09653198
000020 57 8c 04 be 50 97 51 bd 6d b0 f1 bd 18 6c 7d bd
       -0.1294416 -0.051169693 -0.11801229 -0.061870664
000030 a2 5c 9f be 46 24 7f be 44 44 58 be ec 56 8b 3e
       -0.3112536 -0.24916181 -0.21119791 0.27214754
000040 79 79 73 be 82 8e 03 be ca c8 9e 3d f8 34 7c 3e
       -0.23776807 -0.12847331 0.07753141 0.24629581
000050 35 db d5 3c 23 99 d8 bd 71 d5 3e 3e c0 cb 02 3e
       0.026105503 -0.105760835 0.18636109 0.12773037
000060 99 3a 57 be 27 76 91 3e a1 f5 a4 bd 7d 8c a4 3e
       -0.21018447 0.28410456 -0.080546625 0.32138434
000070 f1 98 51 be 42 d6 22 be 01 bc 53 be b3 74 07 3e
       -0.20468499 -0.15902045 -0.20677187 0.13228111
000080 4c 41 62 3d 3d c4 45 bc 1f aa 13 bc d2 a4 0e 3e
       0.055238053 -0.012070713 -0.009012728 0.13930061
000090 83 be 3b be 0f 0c 38 be a2 c9 21 3e e8 bd 87 be
       -0.18334393 -0.1797335 0.15799573 -0.26512074
0000a0 a6 24 26 be 2c ff ef 3b ef 68 a0 3e fd e3 8b 3d
       -0.16224918 0.00732412 0.31330058 0.06830595
0000b0 6d eb 3f be 9c 80 ea bd a4 66 75 be 75 51 10 be
       -0.18742152 -0.114503115 -0.23964936 -0.14093573
0000c0 5f 58 1e bd 22 b9 6c be fa 51 32 be f9 e9 ca 3d
       -0.038658496 -0.23117498 -0.17414084 0.09907908
0000d0 ed cb 34 be b6 0e 97 3e f8 d7 c0 be e9 bc 78 3e
       -0.17655917 0.2950341 -0.3766477 0.24290814
0000e0 f9 49 c6 3d 57 15 28 be 38 d9 75 be 65 09 9c be
       0.09682078 -0.1641439 -0.24008644 -0.30475917
0000f0 96 e8 38 be bf cd 72 3e 9e 98 74 3d 97 73 aa bd
       -0.18057474 0.23711298 0.05971586 -0.08322828
000100 64 83 47 be 3d 4e 38 3e 3f da c9 3d f8 e2 29 3e
       -0.19483715 0.17998596 0.0985608 0.16590488
000110 18 85 b2 be 84 03 20 3e 8f 81 ed bd 3a 6c 76 3e
       -0.34867167 0.15626341 -0.11596977 0.24064723
000120 5d 56 87 be 5a 97 2e bc 60 94 1a 3e ca 5e f5 bd
       -0.26433077 -0.010656202 0.15095663 -0.1198097
000130 8a d4 b5 be ba a9 82 3e 1c 31 78 3c b1 0d 08 3c
       -0.35513717 0.25520116 0.015148427 0.008304046
000140 59 21 c1 bc 2d 81 ce be 6b 3b 0a be 51 d3 1e be
       -0.023575472 -0.40332928 -0.13499229 -0.15510298
000150 31 74 3b 3e 33 51 4d 3e f5 eb 82 3e c5 47 bd 3c
       0.18306042 0.20050506 0.25570646 0.023105511
000160 61 34 16 be db 0a 12 bd b1 cd 5f be d1 2f 78 be
       -0.14668418 -0.035654884 -0.21855809 -0.2423699
000170 e0 22 09 bd 5f 99 93 bd fb cb 8b 3e 86 1c f3 bd
       -0.033480525 -0.072069876 0.27304062 -0.11870675
000180 59 15 62 3e 86 7c 9c be d9 0b f1 3d fa 46 b9 3d
       0.22078456 -0.30563754 0.11769838 0.09046741

18.bias f4 [10]
000000 2d 00 84 be 17 60 07 3e 6c 83 d3 bd 56 fc 3f be
       -0.25781384 0.13220249 -0.10327801 -0.18748602
000010 4d 42 2b 3d f6 1d 6c 3e 41 d7 5a bd e7 6f 99 bd
       0.041811276 0.23058304 -0.05342794 -0.07492047
000020 95 b9 f6 3d 65 5f 8f be
       0.12047116 -0.28002468

19.weight f4 [10]
000000 57 8a 67 3f 0c 63 70 3f b9 42 84 3f 9d 9f 8b 3f
       0.90445465 0.93901134 1.0332862 1.0908085
000010 20 e1 6f 3f 33 64 8b 3f 79 81 84 3f 81 2e 6a 3f
       0.9370289 1.0889953 1.0352012 0.9147721
000020 94 e8 85 3f e9 e0 71 3f
       1.0461602 0.9448381

19.bias f4 [10]
000000 15 b0 d9 3c 73 14 33 ba b0 be ab bc 58 d1 3d 3d
       0.02657322 -0.0006831355 -0.02096495 0.046342224
000010 08 5b ae 3c 5e e1 c7 3d aa 44 d1 3c ba a9 89 bd
       0.021283641 0.09759782 0.025545437 -0.06721826
000020 c3 17 a7 3c f1 d9 87 bc
       0.020397073 -0.016583415

19.running_mean f4 [10]
000000 b3 56 33 be 82 8a b3 bd b5 cf e2 bd 2f 2c 99 be
       -0.17513542 -0.08766653 -0.11074773 -0.29916522
000010 3b a7 61 be 62 16 98 bd f3 ec 2d bd de d7 08 be
       -0.2203645 -0.07426144 -0.0424623 -0.13363597
000020 a3 82 a9 3c 76 b2 a9 be
       0.020692175 -0.33143967

19.running_var f4 [10]
000000 bc 7f b5 3d 6f ae 91 3e a6 7f 44 3e ac 45 f6 3d
       0.08862254 0.28453395 0.19189319 0.120250076
000010 37 cf 7b 3e fa 10 94 3e 37 cc f4 3d 1e e4 c4 3d
       0.24590765 0.28919202 0.119530134 0.096138224
000020 76 62 8c 3e 5f 47 3c 3e
       0.2741887 0.18386601

21.weight f4 [10, 10]
000000 b1 58 8a be fe 47 65 3a a9 fa 85 3d a8 9b c0 39
       -0.2702079 0.00087463844 0.0654195 0.00036737067
000010 d9 33 76 3e 21 23 4b 3e ef ed 8b 3d fe b4 0c be
       0.24043216 0.1983762 0.068324916 -0.13740918
000020 3c de f9 3d 1f 67 3d be bb fc b5 3c 95 e8 34 3e
       0.12200591 -0.18496369 0.022215238 0.17666848
000030 4e e2 99 be 00 8c a5 be ed 0a 61 bd 32 b1 62 3e
       -0.3005547 -0.32333374 -0.05494206 0.22137907
000040 9e 87 01 bd db 9f ef 3d cd 9f 0c bc 0c 53 bc 3d
       -0.031623475 0.11700412 -0.008583021 0.091955274
000050 a1 71 35 3e 31 4e 52 3e a0 c2 9c 3e 03 27 d5 bd
       0.17719127 0.2053764 0.30617237 -0.104078315
000060 94 aa 5d be 39 f9 4b 3e 2d 77 2b be 4e f4 5f 3e
       -0.21647102 0.1991929 -0.1674468 0.21870539
000070 24 27 ef 3a 0e 7f 90 be ba dc df 3d d3 43 81 be
       0.0018245918 -0.28221935 0.10930772 -0.25247058
000080 db 55 86 be ed b6 ab bc 41 f6 f6 bd 9a 6b 90 be
       -0.26237378 -0.02096125 -0.12058688 -0.28207093
000090 db 6f 59 3e 2b 03 b1 bd 30 83 74 3e 08 1d 12 be
       0.21234076 -0.08643182 0.23878169 -0.14268887
0000a0 dc 6e 2f be 0f 94 bd bd 39 46 0d 3d da 7c a5 3e
       -0.17132133 -0.092567556 0.034490798 0.32321817
0000b0 1e 46 2b 3e 36 7e cf bc fe a5 da bd 8e 2d 4d 3e
       0.16725966 -0.025328737 -0.10676192 0.20036909
0000c0 41 b5 87 be fb c5 c7 3d d2 43 26 bd 3e 0b e7 3d
       -0.26505473 0.09754559 -0.040592022 0.11281441
0000d0 9a 9e 1a be c1 74 0b be bf 26 f7 bd 68 8a 9b 3e
       -0.15099564 -0.13618757 -0.12067937 0.30379033
0000e0 4c 2e c0 3e 1c f5 f3 bd 6e 84 d7 3d 4d 34 e2 3d
       0.37535322 -0.11911985 0.10523306 0.11045132
0000f0 27 b8 6a be 1c c1 bd 3a 3b 96 95 bc 08 62 05 3b
       -0.22921811 0.0014477107 -0.018260112 0.002035262
000100 55 49 6f 3d 40 0e f2 3d a4 6e 6e 3e 2f eb 94 3d
       0.058419544 0.11819124 0.23284394 0.0727142
000110 68 a8 89 be 08 b2 27 3e 54 82 f1 3d 56 15 8e 3e
       -0.26886296 0.16376507 0.11792436 0.27750653
000120 68 d8 8e be 9d db cd be d1 9d 8a be 7a 89 c8 bd
       -0.2789948 -0.40206614 -0.2707353 -0.097918466
000130 31 cc 08 3e d8 c9 1a bc 52 2a 9a 3e 08 4a 99 3c
       0.13359143 -0.009447537 0.30110413 0.018712059
000140 50 ee 7f 3d e6 a6 03 be c3 e5 3b be 43 4e ab 3c
       0.062483132 -0.12856635 -0.18349366 0.020911342
000150 d9 a1 9e 3e 34 fd 6b 3d 97 22 49 be 61 0d 5d bd
       0.30982855 0.05761452 -0.19642101 -0.053967837
000160 c9 99 e8 bd e1 f0 94 3d 49 6f b7 3d ea 34 0d be
       -0.11357457 0.072725065 0.08956773 -0.13789716
000170 11 36 05 bd 53 34 7c be b0 a6 48 3e 22 bf 6d be
       -0.032522265 -0.24629335 0.19594836 -0.23217443
000180 b0 ee 73 bd 6c 3a de be 12 a8 94 be 87 d9 e2 3c
       -0.059553802 -0.43403947 -0.29034477 0.027691616

21.bias f4 [10]
000000 e3 25 6c be c4 55 c4 bd 24 1c 9c 3e 38 1f 52 3e
       -0.23061328 -0.09586671 0.3049022 0.20519722
000010 76 e4 8e be 15 8e de 3d 2f 5f 81 be e4 12 33 be
       -0.27908677 0.10866944 -0.25267932 -0.17487675
000020 0e f7 9b 3e 83 e5 ac 3d
       0.30461925 0.084422134

22.weight f4 [10]
000000 7c a5 87 3f 3d ef 82 3f 62 bd 64 3f 3c 46 74 3f
       1.0597377 1.022926 0.89351475 0.9541967
000010 58 ee 87 3f 2d a8 86 3f 9f f4 8b 3f dd 5f 67 3f
       1.0619612 1.0520073 1.0934027 0.9038065
000020 db 3b 7f 3f 5b ef 6d 3f
       0.9970071 0.9294335

22.bias f4 [10]
000000 18 7a 0e 3e 95 b0 f1 3d 75 5a d0 3d ce e6 b4 bb
       0.13913763 0.118012585 0.10173503 -0.005520678
000010 1a 06 3f 3e af 83 37 3c 02 2d c9 3d 78 5b 0d 3e
       0.18654671 0.011200829 0.09823038 0.13804424
000020 39 5f b7 3b a8 91 22 3e
       0.005596068 0.15875876

22.running_mean f4 [10]
000000 79 62 12 be e6 e1 1a be 0e e7 d8 3e da 89 9f bb
       -0.14295377 -0.15125236 0.4236378 -0.004868728
000010 a3 2d 62 be 5a 55 a1 3e ac ef 44 be 3f bc 91 be
       -0.22087722 0.3151043 -0.19232053 -0.28463933
000020 b9 ec 76 3e ed 07 b1 be
       0.2411374 -0.3457636

22.running_var f4 [10]
000000 09 4a e5 3d 01 87 9d 3d 95 57 15 3e 32 90 9e 3d
       0.11195762 0.076917656 0.14584191 0.07742347
000010 b2 89 b7 3d f9 34 c2 3d da 96 4f 3d f6 03 6a 3e
       0.0896181 0.0948276 0.050680973 0.22853073
000020 fc 72 98 3d 81 bb 00 3e
       0.074438065 0.12571527

24.weight f4 [10, 10]
000000 ca 36 66 be 90 55 7c be 73 a0 cb bd f8 73 dd bd
       -0.22481838 -0.24642015 -0.09942713 -0.10813135
000010 14 ae 75 3e a8 31 de bd 7a 5d 4f 3e 5a 95 a0 3d
       0.23992187 -0.10849315 0.20250502 0.078409865
000020 24 af 79 bc 99 d8 85 3e 4f 00 3e 3e 71 6d 80 3e
       -0.015239511 0.26141813 0.18554805 0.25083497
000030 b4 bd 93 be ce b9 ac bd 1a 8b 84 be 98 a1 6c bd
       -0.2885567 -0.08433877 -0.25887376 -0.057771295
000040 d9 e1 b1 bd 3c 1c 26 3d 9b 64 88 3d 9d b4 cb 3c
       -0.08685655 0.04055427 0.06659814 0.024866397
000050 ae 40 83 3e 28 ac 3d bc ef 8a 09 3e dd 25 9e be
       0.25635284 -0.01157669 0.13431905 -0.30888262
000060 13 ac d6 bd 76 14 a6 be ad cd ae 3e 61 d0 c9 3d
       -0.10482039 -0.32437485 0.34141293 0.09854198
000070 59 c1 3b be eb 14 2b 3e 19 6c c9 bd ca 55 24 3d
       -0.18335475 0.16707198 -0.09835071 0.040120877
000080 99 87 8e be d7 70 83 3e fd 4d c4 bc cc 76 4d be
       -0.27837828 0.25672027 -0.023962969 -0.20064849
000090 03 bd c9 3e ed 9d 18 3e 46 22 92 3e d4 48 fa 3d
       0.39402017 0.14903994 0.28541774 0.12220922
0000a0 8e 4d 1e bf 65 1e e1 bd ec 2a 08 3d cd 3c 15 3e
       -0.6183709 -0.109921254 0.03324406 0.14573975
0000b0 07 70 b7 bc 23 b9 c6 bd b4 73 69 3b 2d d5 56 3e
       -0.022392286 -0.09703281 0.0035621943 0.20979758
0000c0 30 68 4b bd 6a 3d 29 be fa 4f ac 3d 2c 31 68 be
       -0.049659908 -0.16527334 0.08413692 -0.22675008
0000d0 98 56 c1 3d 88 20 01 be 99 e8 44 3e 1a 7a 98 be
       0.094403446 -0.12610066 0.19229354 -0.29780656
0000e0 83 f2 c4 3d 6e dc 8d 3e 3e 19 03 3d 7b e4 82 3e
       0.09616568 0.27707237 0.032006495 0.25564942
0000f0 ad 42 34 bd 57 16 4e be 5b e0 37 3d 83 d8 12 be
       -0.0440089 -0.2012571 0.044891696 -0.14340405
000100 d7 35 c8 be a1 12 2d 3d 6c 22 af 3c 9c 3c 85 3e
       -0.39103577 0.042254094 0.021378718 0.26022804
000110 fc 6e 99 be cf 89 24 3e 85 9c 04 3e 91 6f 98 be
       -0.29967487 0.16068195 0.12950332 -0.29772618
000120 1d 2e 44 be ed 70 c7 3e e6 0b d6 bd b7 25 1f bd
       -0.19158216 0.38953343 -0.10451488 -0.038854327
000130 32 a8 34 3d bb c4 54 3e e0 c7 f0 3d ad f7 34 3e
       0.044105716 0.20778172 0.11756873 0.17672606
000140 ae c7 bb be 2f c5 e4 3d 4b 02 a6 bd 1a bd 3e 3e
       -0.3667578 0.11170422 -0.08105906 0.18626824
000150 01 e7 e8 be ab 84 cf bd c3 fb 75 3e 79 c5 8d bc
       -0.45488742 -0.10132726 0.2402182 -0.017306076
000160 8e 22 74 be 44 06 70 3d 31 15 d0 be d2 ac 51 3e
       -0.23841307 0.058599725 -0.40641168 0.20476082
000170 37 65 5c bc 2f b4 7a bd fa 15 16 3e 4d 98 7c be
       -0.013451866 -0.061206993 0.14656821 -0.24667473
000180 13 00 8d be 48 ac 58 3d 95 34 f1 bd 8d a3 84 be
       -0.2753912 0.052898675 -0.11777607 -0.2590603

24.bias f4 [10]
000000 88 74 8c 3e 2d b3 0e be e6 e5 6b 3d a3 3f 3c bd
       0.27432656 -0.13935538 0.057592295 -0.045959126
000010 ea 39 8c 3e 7f 4f 29 3e fd 6b 8f 3d 0a 1c b2 bd
       0.27387935 0.16534232 0.07003019 -0.08696754
000020 b6 db b5 bd 94 18 f8 3c
       -0.08879797 0.030285157

25.weight f4 [10]
000000 0a dc 86 3f 71 14 88 3f dc fe 7e 3f 4c ae 79 3f
       1.05359 1.0631238 0.99607635 0.9753158
000010 b8 79 81 3f 9c 4c 80 3f fe ed 6f 3f 44 3d 78 3f
       1.0115271 1.0023379 0.9372252 0.96968484
000020 52 71 6a 3f 0d 3f 78 3f
       0.91579163 0.9697121

25.bias f4 [10]
000000 4d 40 38 3e f5 75 23 be 37 05 21 3e 62 3c 13 3e
       0.17993279 -0.15962966 0.15724646 0.14378503
000010 c6 f8 1f 3d 52 b9 fb bb bd b2 66 bb fa bd 74 3c
       0.03905561 -0.007682004 -0.003520175 0.014937872
000020 31 9b 1b 3e ea 68 84 3d
       0.1519592 0.06465323

25.running_mean f4 [10]
000000 96 98 95 3e 13 2a 59 be d0 82 bb 3d b6 a8 47 3e
       0.29217976 -0.21207456 0.0915581 0.19497952
000010 a3 29 1b bd d3 1c a8 3e d6 c5 3f be ff b0 1a 3d
       -0.037881505 0.3283449 -0.18727812 0.037766453
000020 0e 2e d4 be f0 4c b0 be
       -0.41441387 -0.344337

25.running_var f4 [10]
000000 06 db 3b 3e 47 51 61 3d aa 0c ce 3d 2b 85 94 3e
       0.1834527 0.055009153 0.10061009 0.2900785
000010 22 ca 9d 3e fc ab 82 3d 83 88 ae 3d 9b e5 cf 3d
       0.30818278 0.0638046 0.08522131 0.10151216
000020 1a fb 7e 3e a0 dd 8c 3e
       0.24900475 0.27512836

27.weight f4 [10, 10]
000000 68 9a 3a be 9c 6f e8 bd 4a 8f 3a bd f0 67 40 3e
       -0.18222964 -0.11349413 -0.045546807 0.18789649
000010 9f f0 a0 3d 58 9a 83 3d a8 9d 36 bd ee 08 db bd
       0.07858395 0.06425923 -0.044583946 -0.106950626
000020 2e e9 1d be ae 7f 7f 3e fb e9 fe bd b1 fe 5e 3e
       -0.15420982 0.2495105 -0.12446972 0.21776845
000030 4a a4 83 bd 11 64 e9 bd 79 59 0d be 27 14 b1 bd
       -0.0642782 -0.11396039 -0.13803662 -0.08646422
000040 92 4f 6a be 96 74 26 3e 8e d3 f0 3b 1a 11 06 be
       -0.22881916 0.16255412 0.007349438 -0.13092461
000050 a3 32 4c 3e fd 15 85 3e 0f 2f d8 bc 83 c4 f2 3d
       0.19941191 0.25993338 -0.026389627 0.11853888
000060 5a 8d 35 3e b3 6f 8e 3e 02 10 7b be ad 74 70 be
       0.17729703 0.27819595 -0.24517825 -0.23482008
000070 a1 93 81 bd 9e 60 c2 be 8d 5f f3 bd 96 43 88 be
       -0.06326986 -0.37964338 -0.11883459 -0.26614064
000080 38 98 06 be 57 d0 ae 3e 04 70 7e bd 4b ab 02 bd
       -0.13144004 0.34143326 -0.062118545 -0.03190164
000090 81 8a 34 3e c2 e8 a5 3d 19 9c a3 3e d5 19 3f 3d
       0.1763096 0.08101036 0.3195503 0.046655495
0000a0 14 a6 ce 3c cf 48 f8 bd a4 93 7d be 9e e3 49 be
       0.025225677 -0.12123262 -0.24763352 -0.19715735
0000b0 8c 0a ec 3d 69 8a b6 3e ae 57 0d 3e 9f b4 e0 3d
       0.11525449 0.35652474 0.13802978 0.10971951
0000c0 5f 84 c8 3d 72 8a 8a be f3 b1 8d 3e 4a 30 82 3e
       0.09790873 -0.2705875 0.27674827 0.25427467
0000d0 06 81 81 3d 84 95 76 be bd 81 51 3d 2e 1f f7 bc
       0.063234374 -0.24080473 0.05114912 -0.030166235
0000e0 87 c6 8f 3e 9e be 19 3e c3 58 1e 3d 2b 1e 2f 3e
       0.28081152 0.15014121 0.03865887 0.17101352
0000f0 94 97 36 3d 8a d0 a2 bd 65 5f 13 3e 7f d7 b3 3e
       0.04457815 -0.07949932 0.14391859 0.35125348
000100 6e c1 45 3d 99 18 06 be 6f 56 30 be 92 f4 35 be
       0.048280172 -0.13095321 -0.17220472 -0.17769077
000110 05 68 24 3e 21 60 94 bd 59 71 e4 bd c0 1b a1 be
       0.16055305 -0.07244898 -0.11154432 -0.31466484
000120 be f6 9e 3e ef 7d 4a 3e 6a 9c 6a be ab 86 00 bd
       0.31047624 0.19774602 -0.2291123 -0.03137843
000130 56 18 2a be fa 7e 2a 3e 69 f6 83 bd 64 5c 83 3c
       -0.16610846 0.1665 -0.064434834 0.016035266
000140 29 23 9e be a2 51 da bc 59 39 0d be be f4 1a be
       -0.308862 -0.026650254 -0.13791408 -0.15132424
000150 50 09 87 be d1 19 20 3e 83 c2 04 bd db f8 29 3e
       -0.26374292 0.15634848 -0.032412063 0.16598837
000160 d6 92 ef bc f3 7a 07 be 15 8b 98 bd 8d 41 52 3c
       -0.029244822 -0.13230495 -0.07448403 0.012833011
000170 88 d5 4e 3e 47 bd 8f bc d0 49 53 3d a1 91 75 3e
       0.20198643 -0.01754631 0.051584065 0.23981334
000180 5c 6e c2 3e f7 5b 0d be cd 6e 44 bc e9 07 5e 3c
       0.37974823 -0.13804613 -0.011989308 0.013551691

27.bias f4 [10]
000000 65 c0 6f 3c e8 e8 d0 bd 1b 46 8a 3e 52 85 94 be
       0.014633273 -0.10200673 0.2700661 -0.29007965
000010 ce 4a 29 bc 46 de 77 3e 72 36 96 3e e0 11 a7 be
       -0.010332776 0.24205884 0.29338413 -0.32630825
000020 84 f4 20 be ed da 4f 3e
       -0.15718275 0.20298357

28.weight f4 [10]
000000 e6 fb 32 40 ea aa 1a 40 c0 56 31 40 08 df 08 40
       2.7966247 2.4166818 2.7709198 2.1386127
000010 b8 9b 1e 40 08 38 0d 40 67 3e 12 40 bc eb 16 40
       2.4782543 2.2065449 2.2850587 2.358138
000020 0c 53 34 40 e0 28 20 40
       2.8175688 2.5024948

28.bias f4 [10]
000000 b5 87 90 3f b5 9a 2b 3f 5e f4 86 3f 7b a7 17 3f
       1.1291414 0.6703294 1.0543325 0.5923993
000010 bc 13 47 3f d5 aa d3 3e db 75 35 3f 44 c4 4e 3f
       0.7776449 0.41341272 0.7088296 0.8076823
000020 91 e8 7c 3f 63 59 47 3f
       0.9879237 0.7787077

28.running_mean f4 [10]
000000 3b c8 04 bd ba d6 a1 be 50 a0 9c 3e 69 1c 12 be
       -0.032417517 -0.31609136 0.3059106 -0.1426865
000010 8b 96 f0 bc 57 d9 28 3f 61 7d bc 3e 8e 41 cc be
       -0.02936866 0.65956634 0.36814407 -0.39893764
000020 58 f1 fc be 51 30 ec 3e
       -0.4940288 0.46130612

28.running_var f4 [10]
000000 22 39 6c 3c 2d 91 07 3d 75 a4 ee 3d 86 cc 08 3e
       0.014417918 0.033097435 0.116524614 0.1335927
000010 56 b3 ab 3d b9 94 6a 3d e2 d1 f7 3c 88 19 a7 3d
       0.08383815 0.05727074 0.030251447 0.081591666
000020 1c 70 d1 3c a3 ee 75 3d
       0.025566153 0.060042035

30.weight f4 [10, 10]
000000 1a 7a da bf 03 f2 8e bf 54 8d a2 bf e3 f9 63 bf
       -1.7068512 -1.1167606 -1.269938 -0.8905317
000010 50 51 44 bf e3 f7 7b bf f2 db 8d bf 98 ef 45 3f
       -0.76686573 -0.9842512 -1.1082747 0.77318716
000020 ea d1 de 3e ad ac 52 3f d4 23 e1 bf f0 fa d1 3e
       0.43519527 0.8229473 -1.7589059 0.41011763
000030 ad f6 33 be 9b 07 ae bf 76 19 a0 bf 71 0a 27 bf
       -0.17574568 -1.3596071 -1.250777 -0.6525031
000040 d0 80 44 bf 59 a6 a4 bf c9 83 c5 3d 10 e8 b3 bf
       -0.7675905 -1.2863265 0.09644277 -1.4055195
000050 7c 1a f7 bf a5 00 1f bf 81 95 0f 3e 2c 4c 44 bf
       -1.9304957 -0.6211036 0.14021875 -0.7667873
000060 f0 81 fc 3e c0 6c 07 bf b1 00 60 bf 5b 5e 43 be
       0.49317884 -0.52900314 -0.87501055 -0.19078963
000070 ce ca 95 bd 77 bc 73 bf ab 12 ef be e2 a6 b7 bf
       -0.073140725 -0.9520945 -0.4669393 -1.4347804
000080 9e 1c 9b 3e f8 83 ca bf 36 bb 02 3e cd 5d 37 bf
       0.3029527 -1.5821524 0.12766728 -0.71627504
000090 47 a6 4a bf 2f 67 95 bf 12 bf ba bf d5 10 8c bf
       -0.7915997 -1.1672114 -1.458956 -1.0942637
0000a0 82 bd a5 be 1c ef 78 bf bf 26 8b bf 44 fe 05 bf
       -0.32371145 -0.9723985 -1.0871199 -0.52341104
0000b0 53 b9 93 bf 65 64 32 3f 6d 20 22 bf bf e3 8c bf
       -1.1540931 0.6968444 -0.6333073 -1.1007003
0000c0 b9 af a4 bf 3b f8 3d 3f fd 75 17 be ef fe dd be
       -1.2866126 0.74206895 -0.14791103 -0.4335856
0000d0 1c 4e 8f bf 72 82 65 bf 13 86 8e bf 50 55 0a bf
       -1.1195712 -0.8965217 -1.1134666 -0.54036427
0000e0 d8 53 18 bf 6e 36 16 3d a2 d8 18 3e 8a f4 6b bf
       -0.59502935 0.036673002 0.14926389 -0.9217001
0000f0 ad 2a b8 bf 98 76 f6 3e d7 91 bf bf 9f 3a 23 3f
       -1.4388024 0.48137355 -1.4966382 0.63761324
000100 66 5b f3 3d c5 56 a7 3e c2 d8 a1 bf 5d f0 33 bf
       0.11882667 0.32683387 -1.2644274 -0.7028864
000110 0f e6 f1 be ba ca 25 bf 12 4a 74 bf cc d8 54 bf
       -0.47245833 -0.6476246 -0.9542552 -0.83143306
000120 6c 09 a4 3e ce f9 07 bf 80 cf 96 bf 25 2a 92 bf
       0.32038438 -0.53115547 -1.1782074 -1.1419111
000130 2d 5b 34 3f b8 38 41 3f 4e 5e 90 bf c9 97 5c bf
       0.70451623 0.7547717 -1.127878 -0.86169106
000140 40 a8 15 3f c0 7a b0 bf aa 6a a9 bf 1d c8 3c bf
       0.58459854 -1.378746 -1.3235676 -0.7374285
000150 25 6b a1 bf d7 a2 14 bf a1 78 64 bf ca e1 77 bf
       -1.2610823 -0.58060974 -0.89246565 -0.968289
000160 83 5c 9f bf 7d c7 72 bf 7a ed 0b be e6 98 97 bf
       -1.2450107 -0.94835645 -0.13664809 -1.1843536
000170 7a e1 86 bf ce 4e 6e 3f 69 1b 19 bd ff 90 82 bf
       -1.053756 0.93088996 -0.037379656 -1.0200499
000180 b4 6a 8f 3e c5 a5 ee be 19 1c ea bf e5 f7 85 3e
       0.28011096 -0.46610847 -1.8289825 0.2616569

30.bias f4 [10]
000000 36 4b e1 bf e1 94 9b 3f bb c8 c1 bf 2e 48 01 40
       -1.7601078 1.2154809 -1.5139383 2.0200305
000010 8d 13 b6 bf cc e7 39 3f 4f aa f4 bf 9a df bc bf
       -1.4224716 0.7261932 -1.9114474 -1.4755738
000020 ee ff cc 3f 52 eb 05 c0
       1.6015604 -2.0924878
