assignment 2/Sigmoid_model.pth (torch, 56973 bytes, 62 tensors)

0.weight f4 [10, 784]
-0.01810631 0.026709862 -0.027070034 0.039622925 -0.0116555365 -0.020782055 -0.024881558 0.028615024
-0.01337611 -0.0153278485 0.02982604 -8.4359335e-06 -0.011833168 -0.02516988 -0.03414892 0.019344002
0.029524565 -0.020486638 -0.01054435 0.037838954 0.002847952 0.02959369 0.016380506 -0.016144503
0.014444117 -0.010406867 0.012268434 -0.028257174 0.029827563 -0.0052008433 0.021056091 -0.020892844
0.017714744 -0.04144034 -0.056146078 -0.07098841 -0.019600213 -0.06579543 -0.03290081 -0.010660717
-0.016650762 -0.041230872 -0.087254785 -0.100562885 -0.080332614 -0.043186687 -0.0478577 -0.078784265
-0.071803264 -0.052306157 -0.105120644 -0.0716795 0.0050509027 0.03260154 0.0040765023 0.023746401
0.004799307 0.016512465 -0.024620354 -0.0413417 -0.0017529877 -0.037101552 -0.045731127 -0.08645402
-0.08032023 -0.02705141 -0.032827917 0.0072010616 0.013864605 0.0071939006 -0.0033085477 -0.07722933
-0.082302056 -0.03587202 -0.028339213 -0.022132838 -0.069835804 -0.033577885 -0.04698578 -0.04789777
0.01003908 0.027658187 0.003344931 0.020568676 -0.0005905812 -0.009501816 -0.08793012 -0.12756877
0.0006812376 -0.016014053 -0.13152663 -0.1725409 -0.065403104 -0.014998159 0.017605497 0.009706464
-0.017279582 -0.04783559 0.025205392 -0.0008540044 0.021571593 0.03673243 -0.025904901 0.026888264
-0.0042493637 -0.020317234 -0.069663495 -0.004372664 0.040505767 0.029583143 0.036711637 -0.0023176617
0.010641835 0.035312206 -0.046193995 -0.050117046 0.0053204563 0.006869467 -0.02659485 0.004579415
0.0022935208 0.00079934596 -0.009212305 0.016178535 0.018041534 0.031510215 -0.026872756 -0.017258788
0.011744454 -0.009469032 -0.019298075 0.027775971 0.0047241496 -0.0065076393 -0.03147933 0.015515573
0.012049163 -0.007738184 -0.020160073 0.028769573 0.028057244 -0.0024590774 -0.07568549 -0.047868434
-0.02551065 0.01931016 0.030856144 -0.0022457298 0.028976895 0.05086557 0.0022607592 -0.00044404497
-0.0091649555 -0.00737607 0.014059486 -0.005228004 0.011769156 0.0076775653 -0.008311448 0.012800452
-0.0370731 0.019175235 -0.05622573 -0.0053212866 0.02388913 0.018539911 -0.07324606 0.022785168
0.001874253 -0.0178773 0.048048094 0.0017817992 0.08423017 0.08319797 -0.007824958 0.079778396
-0.006737859 -0.017466191 0.0060972334 -0.041374724 -0.033733107 -0.037969764 -0.056099173 -0.020574233
-0.014055466 -0.03038657 -0.027410338 -0.01934266 -0.01928878 0.0059859795 0.025892254 -0.016798452
-0.07056217 -0.049097557 0.027130477 0.0050031734 -0.041866343 -0.010618184 0.12576729 0.046562713
0.11415899 0.05072109 0.046833955 0.02795675 0.0009760722 -0.005734589 -0.009178978 -0.011267846
-0.03872973 -0.022834511 -0.0500714 -0.063406385 -0.044162694 -0.017590519 -0.016753323 -0.0006198304
-0.033715606 -0.029517535 0.0014619875 -0.032083634 -0.07220309 -0.017810069 0.024251327 -0.039043568
-0.004766131 0.034651805 0.06984676 0.020689547 0.046298593 -0.005983339 -0.016414126 0.0042434027
-0.01850367 0.013717147 -0.013533263 -0.0215564 -0.031091345 -0.04850067 -0.030356534 -0.014309151
-0.014006669 0.0061986158 -0.010740311 -0.018966904 -0.0039683715 -0.0135902185 -0.008058383 -0.003167148
-0.06957879 -0.045051217 -0.10264882 -0.099276915 -0.04125678 0.027657554 0.04707473 0.026285268
00000000: af53 94bc a4ce da3c fac1 ddbc a64b 223d
00000010: ddf6 3ebc 213f aabc 69d4 cbbc 0e6a ea3c
00000020: 7927 5bbc a821 7bbc bd55 f43c 0f88 0db7
00000030: e7df 41bc 1031 cebc bddf 0bbd 5077 9e3c
00000040: 80dd f13c 98d3 a7bc 36c2 2cbc 05fd 1a3d
00000050: b5a4 3a3b 776e f23c 6930 863c 7a41 84bc
00000060: 05a7 6c3c 9081 2abc 8b01 493c 977b e7bc
00000070: ef58 f43c d66b aabb d37d ac3c 7827 abbc
00000080: 831e 913c 59bd 29bd 6ef9 65bd 5f62 91bd
00000090: a090 a0bc c1bf 86bd 00c3 06bd 4aaa 2ebc
000000a0: 2e67 88bc b4e1 28bd a3b2 b2bd eaf3 cdbd
000000b0: 6d85 a4bd 86e4 30bd 7006 44bd a559 a1bd
000000c0: 970d 93bd fb3e 56bd 7e49 d7bd b4cc 92bd
000000d0: 0b82 a53b 3189 053d 2e94 853b d087 c23c
000000e0: 8143 9d3b 2645 873c a0b0 c9bc ea55 29bd
000000f0: 82c4 e5ba ccf7 17bd 9050 3bbd ce0e b1bd
00000100: ef7e a4bd eb9a ddbc 9176 06bd e2f6 eb3b
00000110: 5e28 633c d0ba eb3b 38d4 58bb 692a 9ebd
00000120: fb8d a8bd 8aee 12bd a327 e8bc ed4f b5bc
00000130: 1306 8fbd f788 09bd 2974 40bd 7430 44bd
00000140: f47a 243c 6c93 e23c a136 5b3b a47f a83c
00000150: 3cd1 1aba 81ad 1bbc b514 b4bd 63a1 02be
00000160: 1595 323a e72f 83bc ebae 06be 90ae 30be
00000170: 10f2 85bd d7ba 75bc 6739 903c dc07 1f3c
00000180: e98d 8dbc 40ef 43bd 8a7b ce3c 44df 5fba
00000190: e9b6 b03c bf74 163d 8436 d4bc c744 dc3c
000001a0: 3f3e 8bbb 5470 a6bc bcab 8ebd 9048 8fbb
000001b0: 60e9 253d 5958 f23c f15e 163d e9e3 17bb
000001c0: 175b 2e3c 88a3 103d ea35 3dbd 8847 4dbd
000001d0: 3957 ae3b 4419 e13b 71dd d9bc eb0e 963b
000001e0: e54e 163b 338b 513a 35ef 16bc d988 843c
000001f0: d7cb 933c db10 013d 4124 dcbc 4d62 8dbc
00000200: cf6b 403c 0024 1bbc ff16 9ebc 6f8a e33c
00000210: 0acd 9a3b 093e d5bb 78f0 00bd 0835 7e3c
00000220: da69 453c 9890 fdbb bd26 a5bc 2bae eb3c
00000230: 4ed8 e53c 7928 21bb ff00 9bbd b111 44bd
00000240: b6fb d0bc 5730 9e3c 06c6 fc3c 182d 13bb
00000250: f460 ed3c 6a58 503d 3f29 143b b5ce e8b9
00000260: 9c28 16bc f6b2 f1bb c259 663c ad4f abbb
00000270: 6bd3 403c 1694 fb3b bd2c 08bc fdb8 513c
00000280: f7d9 17bd 6215 9d3c f34c 66bd 305e aebb
00000290: 23b3 c33c 03e1 973c 0802 96bd f6a7 ba3c
000002a0: 7fa9 f53a 6a73 92bc 14ce 443d 438b e93a
000002b0: de80 ac3d b363 aa3d 4134 00bc db62 a33d
000002c0: 42c9 dcbb 4215 8fbc 4dcb c73b 8b78 29bd
000002d0: ba2b 0abd 2f86 1bbd 3fc8 65bd 4b8b a8bc
000002e0: e648 66bc 42ed f8bc a58b e0bc 8074 9ebc
000002f0: 8103 9ebc 0926 c43b fe1b d43c e89c 89bc
00000300: e682 90bd 851a 49bd bc40 de3c a9f1 a33b
00000310: 0b7c 2bbd e4f7 2dbc 24c9 003e 8bb8 3e3d
00000320: 30cc e93d ebc0 4f3d f6d4 3f3d 8e05 e53c
00000330: 19df 7f3a 38e9 bbbb 6d63 16bc c69c 38bc
00000340: 11a3 1ebd 710f bbbc ab17 4dbd 35db 81bd
00000350: f1e3 34bd fe19 90bc 443e 89bc 1d7c 22ba
00000360: 6019 0abd c2ce f1bc 29a0 bf3a 216a 03bd
00000370: 37df 93bd 6ce6 91bc b8aa c63c 26ec 1fbd
00000380: 342d 9cbb 0def 0d3d d10b 8f3d 207d a93c
00000390: 98a3 3d3d e30f c4bb eb76 86bc 3e0c 8b3b
000003a0: 0295 97bc e2bd 603c 9eba 5dbc 0c97 b0bc
000003b0: 47b3 febc a3a8 46bd 44ae f8bc ee70 6abc
000003c0: 3a7c 65bc c21d cb3b 21f8 2fbc 7b60 9bbc
000003d0: 1d09 82bb 82a9 5ebc 4f07 04bc ed8f 4fbb
000003e0: 537f 8ebd a087 38bd 8b39 d2bd b251 cbbd
000003f0: dffc 28bd 1892 e23c 6fd1 403d 3454 d73c

0.bias f4 [10]
-0.036804173 0.020683397 -0.030058268 0.012536625 -0.012921963 0.021006003 0.020086115 0.013266095
0.015230106 0.013337979
00000000: f9bf 16bd 3a70 a93c c23c f6bc 6b66 4d3c
00000010: a4b6 53bc c814 ac3c a38b a43c 095a 593c
00000020: b287 793c 8a87 5a3c

1.weight f4 [10]
1.0999113 1.3252066 1.0461328 1.0511671 1.2896793 1.1307898 1.1880355 1.1668224
1.1222916 1.0587281
00000000: e5c9 8c3f 5fa0 a93f aee7 853f a58c 863f
00000010: 3614 a53f b8bd 903f 8c11 983f 705a 953f
00000020: 40a7 8f3f 6784 873f

1.bias f4 [10]
0.250042 -0.30065787 -0.22768176 -0.6041219 0.4995872 -0.24687812 0.5195439 0.21454017
-0.4736837 -0.24453956
00000000: 8105 803e d4ef 99be 6825 69be bca7 1abf
00000010: e5c9 ff3e 9ecd 7cbe d400 053f 6bb0 5b3e
00000020: ac86 f2be 9468 7abe

1.running_mean f4 [10]
2.0247924 -1.5064175 0.76729196 -0.72495055 2.8986204 1.50226 7.1279163 -6.727873
-1.3654022 1.8242689
00000000: 3396 0140 4ad2 c0bf 3f6d 443f 5c96 39bf
00000010: ff82 3940 0e4a c03f e417 e440 bc4a d7c0
00000020: 80c5 aebf a581 e93f

1.running_var f4 [10]
1.1367934 1.1514747 1.223824 1.4494541 0.9135001 0.94974 0.7268585 1.0449983
0.71176136 1.1491905
00000000: 7282 913f 8663 933f 44a6 9c3f b687 b93f
00000010: 24db 693f 2922 733f 6613 3a3f 81c2 853f
00000020: fe35 363f ad18 933f

3.weight f4 [10, 10]
0.107681945 -0.23993693 -0.2204763 -0.3332191 0.33023447 0.0045117363 0.1908453 0.20962031
-0.17648357 0.022428595 0.25230464 0.3264939 -0.13194612 -0.20887525 -0.25660715 0.16449046
-0.2125554 0.26028332 0.18010491 -0.0937333 -0.29342616 -0.049666 -0.20239179 0.21108353
0.2135988 -0.013992069 -0.022970585 -0.15763368 0.21294305 -0.14099856 0.10725527 -0.044565354
-0.33253103 0.25239056 0.3891419 0.098659515 0.068425074 -0.044108495 0.013303564 0.13259692
0.29961306 -0.15184568 0.14234588 -0.17161487 0.03743322 -0.17124484 -0.012188545 -0.13703942
0.24604389 -0.06737999 -0.4384623 0.13109964 -0.16473381 0.07483725 0.260589 0.2487173
0.19559865 -0.1420345 0.04451889 0.208148 -0.18323901 0.12930128 0.17600353 -0.13968231
-0.048088174 0.26416913 -0.18358545 0.09022364 0.15808778 0.3412106 -0.13025482 -0.4756463
0.06628312 -0.006475163 0.009783968 0.129331 0.18245758 -0.0673968 0.2745299 0.08329858
-0.17786442 -0.046031557 -0.3208789 -0.12940341 -0.2044464 0.13519917 -0.10665171 -0.051132794
-0.010789465 -0.067731425 0.0491257 0.008249618 0.19377305 0.12845972 -0.014833262 -0.25603932
-0.28314564 -0.2067074 -0.05880311 0.2375785
00000000: 5a88 dc3d 07b2 75be 8ac4 61be b29b aabe
00000010: 7e14 a93e 30d7 933b f36c 433e b5a6 563e
00000020: 1cb8 34be 2cbc b73c 132e 813e 352a a73e
00000030: e21c 07be 65e3 55be 0362 83be 3070 283e
00000040: 1fa8 59be db43 853e 6c6d 383e 3ff7 bfbd
00000050: f43b 96be 936e 4bbd cb3f 4fbe 4826 583e
00000060: a5b9 5a3e fe3e 65bc cf2c bcbc b96a 21be
00000070: be0d 5a3e ed61 10be a7a8 db3d 298a 36bd
00000080: 8241 aabe 5639 813e 9b3d c73e 000e ca3d
00000090: 7222 8c3d 1cab 34bd 31f7 593c 7dc7 073e
000000a0: e266 993e 6f7d 1bbe 1ec3 113e cfbb 2fbe
000000b0: 9353 193d cf5a 2fbe 77b2 47bc 1054 0cbe
000000c0: eef2 7b3e 85fe 89bd 217e e0be fc3e 063e
000000d0: fbaf 28be 4644 993d ec6b 853e bfaf 7e3e
000000e0: 034b 483e 7e71 11be 7159 363d c024 553e
000000f0: 02a3 3bbe 8e67 043e 453a 343e e108 0fbe
00000100: 1bf8 44bd 2d41 873e d3fd 3bbe 2cc7 b83d
00000110: c3e1 213e 28b3 ae3e 8561 05be e987 f3be
00000120: 72bf 873d 9b2d d4bb f04c 203c 586f 043e
00000130: 29d6 3a3e 5507 8abd 2f8f 8c3e 7298 aa3d
00000140: 1722 36be 968b 3cbd 3d4a a4be 5482 04be
00000150: 665a 51be a771 0a3e 366c dabd 9f70 51bd
00000160: 4cc6 30bc c6b6 8abd 0838 493d 6829 073c
00000170: 716c 463e f28a 033e 3607 73bc 9617 83be
00000180: 77f8 90be 1bab 53be 88db 70bd c747 733e

3.bias f4 [10]
-0.09793245 -0.01541996 0.1812795 -0.21535113 -0.049740218 -0.06398605 0.02258975 -0.053348646
0.024420977 0.047193702
00000000: cf90 c8bd 00a4 7cbc 55a1 393e 0285 5cbe
00000010: 66bc 4bbd 1e0b 83bd 240e b93c 1c84 5abd
00000020: 800e c83c 2f4e 413d

4.weight f4 [10]
1.1426753 1.0676209 1.0870914 1.0766281 1.1033728 1.076181 1.0893826 1.0710983
1.1188817 1.1558242
00000000: 2f43 923f cda7 883f d025 8b3f f3ce 893f
00000010: 523b 8d3f 4dc0 893f e470 8b3f c019 893f
00000020: 8437 8f3f 0cf2 933f

4.bias f4 [10]
0.41035542 -0.03210475 0.34154853 -0.7480837 0.52758485 -0.44511536 -0.2621352 0.2990405
-0.42566457 -0.1534797
00000000: 1b1a d23e 4580 03bd 73df ae3e 6a82 3fbf
00000010: cd0f 073f 29e6 e3be 9636 86be d61b 993e
00000020: b5f0 d9be c829 1dbe

4.running_mean f4 [10]
-0.009255038 0.08819556 0.03461413 0.12886944 -0.020553539 0.132048 0.2523803 -0.017933706
-0.47351074 -0.10612786
00000000: 71a2 17bc e09f b43d 8cc7 0d3d 5af6 033e
00000010: e55f a8bc 9737 073e fe37 813e b5e9 92bc
00000020: 0070 f2be 9059 d9bd

4.running_var f4 [10]
0.032192465 0.032306485 0.012593622 0.015832385 0.009445297 0.011357676 0.012178796 0.025807807
0.009818707 0.008889991
00000000: 3fdc 033d ce53 043d 7b55 4e3c ebb2 813c
00000010: 72c0 1a3c 8c15 3a3c 9389 473c e56a d33c
00000020: a4de 203c 53a7 113c

6.weight f4 [10, 10]
0.27697152 0.1702714 0.15668008 0.08818256 0.25884965 0.041044693 -0.004895946 -0.21316263
0.049996633 -0.0765211 0.20926149 0.25796473 0.23054814 -0.14912221 0.11094131 -0.04868701
-0.21822438 0.066419795 0.11273574 0.14174205 0.04694479 -0.012158267 -0.091148965 0.0530751
0.2826288 0.23538503 0.20884608 0.04551959 -0.033708274 0.12874343 -0.00853371 0.060537957
-0.10369333 0.20845199 -0.21977441 0.24947652 -0.15575066 -0.12462557 -0.20645282 -0.14219393
0.025099494 -0.16844866 -0.024877736 -0.27849624 0.23717369 0.034441695 0.26210824 -0.21580665
0.27754292 0.35908207 -0.33755288 0.0836133 -0.15724482 0.29945746 0.029755194 -0.07845065
-0.17661087 0.23957537 0.10500355 -0.20324795 0.059811343 -0.22648558 -0.09795293 0.24911974
-0.1257816 -0.052911103 0.010979749 0.34890184 -0.19627087 0.0052558477 -0.2091912 0.037841056
0.06514428 -0.0390017 0.19038984 0.18583667 0.29162368 -0.26069564 0.059473522 -0.36155593
-0.19609761 -0.18322419 -0.09330036 -0.26294476 -0.044574335 -0.25096345 0.103691116 -0.1722994
-0.26948684 0.099923395 0.16419224 0.31931797 0.27348363 -0.21625586 -0.2738538 -0.13027644
0.17446582 0.058811072 -0.17634301 -0.103156865
00000000: 36cf 8d3e a05b 2e3e be70 203e 0f99 b43d
00000010: f187 843e 7b1e 283d 2c6e a0bb 4e47 5abe
00000020: 45c9 4c3d 18b7 9cbd a548 563e f413 843e
00000030: d014 6c3e 7eb3 18be 3335 e33d 086c 47bd
00000040: 3676 5fbe 1a07 883d ffe1 e63d d424 113e
00000050: 2e49 403d 7833 47bc 4fac babd 4765 593d
00000060: b9b4 903e c608 713e bfdb 553e c072 3a3d
00000070: b011 0abd 51d5 033e f9d0 0bbc a6f6 773d
00000080: 2b5d d4bd 7074 553e 8b0c 61be c676 7f3e
00000090: 1a7d 1fbe b13b ffbd 5e68 53be 499b 11be
000000a0: 749d cd3c ce7d 2cbe 65cc cbbc 0f97 8ebe
000000b0: a9dd 723e bc12 0d3d 0d33 863e 6bfc 5cbe
000000c0: 1b1a 8e3e 9bd9 b73e bbd3 acbe 733d ab3d
000000d0: c904 21be 7d52 993e 2ac1 f33c bcaa a0bd
000000e0: 7bd9 34be 3f53 753e 1a0c d73d 3b20 50be
000000f0: bdfc 743d d6eb 67be 8c9b c8bd 3f19 7f3e
00000100: e4cc 00be 50b9 58bd 68e4 333c 43a3 b23e
00000110: 3bfb 48be 3f39 ac3b 3836 56be 39ff 1a3d
00000120: 5d6a 853d 3fc0 1fbd 8ef5 423e f84b 3e3e
00000130: b34f 953e e679 85be 829a 733d dc1d b9be
00000140: d0cd 48be 1f9f 3bbe 4214 bfbd b2a0 86be
00000150: 9493 36bd 487e 80be 025c d43d 416f 30be
00000160: 2efa 89be a3a4 cc3d 0322 283e a57d a33e
00000170: 0c06 8c3e 2d72 5dbe 9136 8cbe 3067 05be
00000180: 2ba7 323e e1e3 703d 4393 34be e843 d3bd

6.bias f4 [10]
-0.27216622 0.023532288 0.033140246 0.01804319 -0.06916152 -0.05298909 0.04160494 0.012072821
0.27471644 0.05456714
00000000: 5f59 8bbe c9c6 c03c 11be 073d 50cf 933c
00000010: 8ea4 8dbd 170b 59bd f169 2a3d 15cd 453c
00000020: a2a7 8c3e cb81 5f3d

7.weight f4 [10]
1.0402833 1.1304219 1.0056573 1.0214134 0.98856115 1.0117615 1.0849252 1.0714558
1.092504 1.1248533
00000000: 0128 853f aab1 903f 61b9 803f adbd 823f
00000010: 5812 7d3f 6781 813f d4de 8a3f 7725 893f
00000020: 2cd7 8b3f 31fb 8f3f

7.bias f4 [10]
-0.15854171 -0.19121331 0.23817764 -0.0145863835 0.20558552 -0.34379765 0.16259316 0.63088644
-0.15302914 0.45667863
00000000: c258 22be 6ccd 43be d7e4 733e bafb 6ebc
00000010: 0385 523e 3f06 b0be d27e 263e c681 213f
00000020: acb3 1cbe c8d1 e93e

7.running_mean f4 [10]
0.12564132 0.44606113 0.4550735 -0.26110184 0.18416673 -0.1977008 0.023856483 -0.03630904
-0.32261363 0.15043287
00000000: 1ea8 003e 2062 e43e 65ff e83e 24af 85be
00000010: 3496 3c3e 1472 4abe ac6e c33c cab8 14bd
00000020: 9d2d a5be 130b 1a3e

7.running_var f4 [10]
0.00981569 0.0035043806 0.013192066 0.011059841 0.017785076 0.013840404 0.018835666 0.015896149
0.03167737 0.01193628
00000000: fdd1 203c c0a9 653b 8923 583c 5634 353c
00000010: 02b2 913c ddc2 623c 414d 9a3c a438 823c
00000020: 21c0 013d 6390 433c

9.weight f4 [10, 10]
-0.25755638 -0.23285797 0.08571921 0.053716365 0.069765404 -0.15445916 0.042038485 -0.15398246
-0.17637958 -0.2436266 -0.08938306 -0.23451027 -0.043368448 0.08682489 0.24658787 0.017802797
0.19977865 0.14215215 0.13332823 -0.092647344 -0.00966891 -0.24695288 -0.30454123 -0.027905015
-0.33152917 0.24901952 -0.17485279 -0.035205644 0.24589539 -0.18584423 0.26611146 -0.09458932
0.2134499 0.2995873 -0.05453132 -0.049427994 -0.10021432 -0.101023145 0.1752948 0.047735658
-0.13836105 0.23688011 -0.076419786 -0.05622321 0.040520407 -0.19727811 0.064810134 0.16247429
0.2174943 0.073103964 0.105782755 0.049014714 0.06671358 -0.24108462 -0.098260805 0.030969495
-0.050299216 0.02055504 0.17320642 -0.03487026 0.111712806 -0.076314114 0.046732135 0.13297251
-0.1829415 0.04606163 -0.26877457 0.034374613 0.2581681 0.31480888 0.2114585 0.10882395
-0.2048276 0.066101365 -0.14185229 -0.30560794 0.35359773 -0.25167057 -0.13078403 -0.0080968905
0.047078684 -0.2448233 -0.3027504 0.2157168 -0.22315724 0.36470276 -0.07705536 0.16764072
0.08730348 -0.13868111 0.060714316 -0.037202865 -0.15052748 -0.22981356 0.01481047 -0.070482
-0.07261044 0.35078448 0.19730061 0.23595583
00000000: 6ede 83be 5272 6ebe 8e8d af3d b105 5c3d
00000010: 2ae1 8e3d 8b2a 1ebe 8c30 2c3d 94ad 1dbe
00000020: d99c 34be 4079 79be 770e b7bd 7623 70be
00000030: 1da3 31bd 3fd1 b13d 8881 7c3e 2cd7 913c
00000040: c692 4c3e 5590 113e 3287 083e e4bd bdbd
00000050: 596a 1ebc 37e1 7cbe d4ec 9bbe 0f99 e4bc
00000060: 31be a9be f9fe 7e3e 9c0c 33be cb33 10bd
00000070: 00cc 7b3e f34d 3ebe c33f 883e 0cb8 c1bd
00000080: 9c92 5a3e 8263 993e 3c5c 5fbd 0275 4abd
00000090: 2a3d cdbd 39e5 cebd 7b80 333e 7786 433d
000000a0: 85ae 0dbe b390 723e fa81 9cbd 4f4a 66bd
000000b0: baf8 253d 4603 4abe 2dbb 843d a95f 263e
000000c0: d3b6 5e3e 88b7 953d a1a4 d83d a7c3 483d
000000d0: 21a1 883d e3de 76be f63c c9bd bdb3 fd3c
000000e0: 8d06 4ebd 0b63 a83c 065d 313e 1ed4 0ebd
000000f0: afc9 e43d 934a 9cbd 326a 3f3d f229 083e
00000100: 0455 3bbe 1fab 3c3d d29c 89be 65cc 0c3d
00000110: 9c2e 843e a12e a13e 9488 583e 17df de3d
00000120: 54be 51be 2760 873d ba41 11be a578 9cbe
00000130: c30a b53e f7da 80be 40ec 05be d2a8 04bc
00000140: 94d5 403d f6b2 7abe 1a02 9bbe dde4 5c3e
00000150: 5583 64be 52ba ba3e 33cf 9dbd 02aa 2b3e
00000160: 2bcc b23d 6c02 0ebe 93af 783d 0862 18bd
00000170: e023 1abe 3f54 6bbe 9da7 723c de58 90bd
00000180: c8b4 94bd 069a b33e 2c09 4a3e 689e 713e

9.bias f4 [10]
0.17717004 -0.31703505 -0.18398136 0.08946697 0.19027874 -0.21108373 0.09446273 0.18028295
0.139206 -0.07093982
00000000: 106c 353e 6b52 a2be 9c65 3cbe 753a b73d
00000010: 6ed8 423e 5526 58be ad75 c13d 189c 383e
00000020: 058c 0e3e e548 91bd

10.weight f4 [10]
1.1642236 1.085026 1.0955424 1.1172957 0.9957913 0.9754254 1.0213403 1.0617388
0.96644115 1.0380738
00000000: 4705 953f 22e2 8a3f bc3a 8c3f 8c03 8f3f
00000010: 2eec 7e3f 7bb5 793f 47bb 823f 0fe7 873f
00000020: b068 773f 9adf 843f

10.bias f4 [10]
0.08847381 -0.2556368 -0.19911544 -0.3503912 0.28247014 -0.184724 0.5833763 -0.2840119
-0.15462306 0.4842384
00000000: c231 b53d d4e2 82be ebe4 4bbe 7a66 b3be
00000010: ed9f 903e 4a28 3dbe 2658 153f 026a 91be
00000020: 8255 1ebe 18ee f73e

10.running_mean f4 [10]
-0.3070701 -0.10579934 -0.66508955 0.37975478 0.38198164 -0.21530052 0.30973375 0.0068033594
0.049832694 0.13152272
00000000: 4b38 9dbe 53ad d8bd 4f43 2abf 386f c23e
00000010: 1993 c33e bd77 5cbe 6c95 9e3e b7ee de3b
00000020: 5e1d 4c3d e4ad 063e

10.running_var f4 [10]
0.01827926 0.0087102195 0.0139992265 0.013161782 0.011500837 0.0044167303 0.02022554 0.018874887
0.02503633 0.02723058
00000000: 63be 953c 4fb5 0e3c 035d 653c 84a4 573c
00000010: 026e 3c3c 38ba 903b 08b0 a53c 829f 9a3c
00000020: fd18 cd3c aa12 df3c

12.weight f4 [10, 10]
-0.00076891034 0.037262037 0.08101648 -0.11413395 -0.039193653 -0.15202212 -0.101324834 0.1909574
-0.16084203 0.13061845 0.3845785 0.17523304 0.121702306 0.15415971 0.041884728 -0.11230798
-0.22773603 0.24121973 -0.18351798 0.0053013996 0.060090907 -0.086009815 0.20787378 0.24975993
-0.19038899 -0.0066784723 0.3049921 -0.031616177 0.15186445 0.0068630734 -0.0719207 0.20408584
-0.02995403 -0.08657198 0.2005265 0.06440043 0.2905094 0.21250832 0.017069608 0.18026058
-0.021054579 -0.32397667 -0.21416813 0.12194332 -0.15183151 0.13132425 -0.14210466 0.19644557
0.12589078 -0.25391847 -0.15782379 0.08790683 -0.31632838 0.060361706 -0.18573064 -0.13015375
0.04240087 0.16079621 -0.2599271 0.2823113 -0.12480996 -0.039016303 0.14828458 -0.22553498
-0.2527605 -0.33189133 -0.20157543 0.11965168 -0.2378644 -0.10610405 0.3246509 -0.14560181
0.06097479 -0.124734014 0.1640556 -0.22183388 0.16241981 0.23235624 0.04110114 0.25083667
-0.2869245 -0.020614304 0.1338039 0.1549505 0.23377755 -0.06932963 0.14192384 0.118628375
-0.009861178 -0.021430327 -0.051816978 -0.13861206 -0.3121667 0.081159145 0.19290918 0.31044558
-0.06529612 -0.083117306 -0.19226858 -0.23675713
00000000: b390 49ba 14a0 183d f8eb a53d 0fbf e9bd
00000010: 8689 20bd b0ab 1bbe 6583 cfbd 568a 433e
00000020: c6b3 24be d8c0 053e 79e7 c43e 4a70 333e
00000030: 0f3f f93d 0bdc 1d3e 528f 2b3d ba01 e6bd
00000040: a233 69be 4e02 773e 23ec 3bbe 5db7 ad3b
00000050: e221 763d ea25 b0bd dddc 543e 11c1 7f3e
00000060: 55f5 42be 16d7 dabb ed27 9c3e f77f 01bd
00000070: 5b82 1b3e a2e3 e03b 294b 93bd e1fb 503e
00000080: 2762 f5bc a64c b1bd d256 4d3e 5fe4 833d
00000090: a6bd 943e c89b 593e 90d5 8b3c 3b96 383e
000000a0: a77a acbc 45e0 a5be e44e 5bbe 6bbd f93d
000000b0: b879 1bbe dd79 063e e283 11be 0729 493e
000000c0: 83e9 003e 9a01 82be 8f9c 21be 7f08 b43d
000000d0: cbf5 a1be d63d 773d 2c30 3ebe 0647 05be
000000e0: 89ac 2d3d c3a7 243e 2a15 85be 1b8b 903e
000000f0: 5d9c ffbd 8fcf 1fbd ead7 173e a4f2 66be
00000100: d369 81be a9ed a9be ca69 4ebe f10b f53d
00000110: ba92 73be 154d d9bd a538 a63e a418 15be
00000120: b4c0 793d 8c74 ffbd 31fe 273e 6c28 63be
00000130: 6151 263e cbee 6d3e ab59 283d aa6d 803e
00000140: c5e7 92be 54df a8bc e403 093e 58ab 1e3e
00000150: 6263 6f3e b1fc 8dbd 7c54 113e 6ff3 f23d
00000160: c790 21bc a78e afbc 0a3e 54bd 52f0 0dbe
00000170: 50d4 9fbe c436 a63d fc89 453e b9f2 9e3e
00000180: f9b9 85bd 6839 aabd 0ee2 44be 7670 72be

12.bias f4 [10]
-0.05378667 -0.23143502 0.2760692 -0.32837677 -0.018140774 0.027101152 0.29885444 0.033939403
-0.15565725 -0.20623147
00000000: 694f 5cbd 4dfd 6cbe f158 8d3e 0021 a8be
00000010: f69b 94bc 3c03 de3c 7303 993e 0b04 0b3d
00000020: 9d64 1fbe 582e 53be

13.weight f4 [10]
1.1654936 1.080803 1.0006336 1.0096607 1.0606434 1.0640678 0.9120895 1.146683
0.99346185 1.0200948
00000000: e52e 953f c157 8a3f c314 803f 903c 813f
00000010: 2ac3 873f 6033 883f b37e 693f 82c6 923f
00000020: 8453 7e3f 7792 823f

13.bias f4 [10]
0.48139024 -0.12926023 0.24897237 -0.50235814 -0.636311 0.04805957 -0.23089483 0.1195951
-0.37322858 0.46274504
00000000: c878 f63e cb5c 04be 9df2 7e3e 8b9a 00bf
00000010: 47e5 22bf 1dda 443d b26f 6cbe 47ee f43d
00000020: d117 bfbe ebec ec3e

13.running_mean f4 [10]
-0.11798538 0.02481231 0.6114355 0.20580493 -0.33878958 -0.1551316 -0.35737613 0.4743161
0.036000278 -0.46061322
00000000: 52a2 f1bd 2f43 cb3c 0987 1c3f 87be 523e
00000010: d475 adbe d1da 1ebe 01fa b6be 8fd9 f23e
00000020: 0775 133d 7fd5 ebbe

13.running_var f4 [10]
0.0030760951 0.04222587 0.017948708 0.011793948 0.028023114 0.015751172 0.017888587 0.0071730567
0.010421686 0.025448915
00000000: 5098 493b 09f5 2c3d 2b09 933c 673b 413c
00000010: bb90 e53c 9a08 813c 168b 923c f60b eb3b
00000020: b8bf 2a3c 3e7a d03c

15.weight f4 [10, 10]
-0.15824866 -0.42025888 -0.08155084 -0.025148854 0.20010781 -0.05037255 -0.042001303 0.04202706
-0.19705427 -0.120227434 0.3119775 0.032452393 -0.07609006 -0.094924085 -0.033243164 -0.29881
-0.094660826 0.18409131 -0.30890524 -0.1937541 0.1038461 0.14178991 -0.08152401 -0.03785508
-0.11924063 -0.15246582 -0.14750731 -0.22820354 0.21441628 -0.108622395 0.24440753 0.09837757
-0.21740393 -0.087634735 0.1248188 -0.033182118 -0.09812175 -0.26680946 0.26438448 0.203643
-0.086584866 0.20546846 0.0029368147 0.09202908 -0.016281283 -0.06774862 -0.027130868 -0.13881084
0.08439578 -0.079104215 -0.17584968 0.25928986 -0.13356064 0.25767323 -0.09274411 -0.02390305
0.16076685 -0.069376186 -0.196534 0.26546356 -0.08891609 -0.0893208 0.24015008 0.24113049
0.33989948 0.06153691 0.19432122 0.17193316 0.21194607 0.28499308 -0.21652752 0.12478861
-0.031985313 0.08312685 -0.2766394 0.218954 0.03570015 -0.19821769 -0.16973867 0.2879619
-0.28986332 -0.2061118 0.028533636 -0.22541785 0.11364616 -0.18198211 0.07742115 0.028106168
-0.20652066 0.07119881 -0.15966049 -0.020718193 0.2110706 0.15762374 -0.27591938 -0.00065158494
-0.20451844 -0.07180255 -0.27902567 -0.38056612
00000000: f00b 22be 2c2c d7be 2004 a7bd f804 cebc
00000010: 10e9 4c3e 7253 4ebd 8f09 2cbd 9124 2c3d
00000020: 98c8 49be cd39 f6bd 84bb 9f3e cdec 043d
00000030: 1bd5 9bbd 8f67 c2bd fc29 08bd a0fd 98be
00000040: 89dd c1bd 6f82 3c3e d428 9ebe 7a67 46be
00000050: 44ad d43d 6031 113e 0ff6 a6bd ee0d 1bbd
00000060: 6e34 f4bd 0020 1cbe 280c 17be 30ae 69be
00000070: f18f 5b3e 6b75 debd f845 7a3e 2e7a c93d
00000080: 239f 5ebe d779 b3bd 00a1 ff3d f9e9 07bd
00000090: 0ef4 c8bd 409b 88be 675d 873e ca87 503e
000000a0: 6853 b1bd 5366 523e 9377 403b be79 bc3d
000000b0: 5360 85bc cabf 8abd 8e41 debc 6e24 0ebe
000000c0: b2d7 ac3d 6401 a2bd f011 34be a4c1 843e
000000d0: 1fc4 08be bfed 833e a0f0 bdbd 54d0 c3bc
000000e0: 11a0 243e 1a15 8ebd 3540 49be d7ea 873e
000000f0: a419 b6bd d3ed b6bd e7e9 753e e9ea 763e
00000100: 4e07 ae3e 200e 7c3d 24fc 463e 3f0f 303e
00000110: 6408 593e 9dea 913e 64b9 5dbe 2c91 ff3d
00000120: 0803 03bd 693e aa3d aea3 8dbe 7a35 603e
00000130: 523a 123d 94f9 4abe f9cf 2dbe be6f 933e
00000140: f768 94be f90e 53be 5fbf e93c f0d3 66be
00000150: 51bf e83d 8559 3abe fb8e 9e3d e83e e63c
00000160: 277a 53be afd0 913d 0a7e 23be 33b9 a9bc
00000170: e422 583e 1e68 213e 4e45 8dbe 20cf 2aba
00000180: 486d 51be 370d 93bd 74dc 8ebe 90d9 c2be

15.bias f4 [10]
-0.09334293 -0.0039971564 0.1986789 -0.28612876 0.1743541 -0.31247675 -0.22891214 0.27612633
0.31973648 -0.22087127
00000000: 942a bfbd 94fa 82bb 7b72 4b3e 787f 92be
00000010: e289 323e f4fc 9fbe f267 6abe 6e60 8d3e
00000020: 80b4 a33e 142c 62be

16.weight f4 [10]
0.9956965 0.9089281 1.1603085 1.0522949 1.0956492 0.98213065 1.021019 1.0058972
1.1336879 1.0555706
00000000: f7e5 7e3f 83af 683f fd84 943f 99b1 863f
00000010: 3c3e 8c3f ea6c 7b3f c0b0 823f 3dc1 803f
00000020: af1c 913f f01c 873f

16.bias f4 [10]
-0.58727396 0.3226459 -0.03195223 -0.66096836 0.74428874 -0.33113158 0.48630747 -0.18989882
0.2536767 0.5704399
00000000: 9657 16bf d831 a53e 57e0 02bd 3935 29bf
00000010: b589 3e3f 148a a9be 4bfd f83e d674 42be
00000020: eae1 813e 5908 123f

16.running_mean f4 [10]
-0.54708636 -0.24006674 -0.01338814 -0.17126562 0.12203228 -0.19995213 0.50022185 0.24180686
-0.07273109 -0.72334504
00000000: da0d 0cbf 0ed4 75be ee59 5bbc 4160 2fbe
00000010: 0fec f93d 40c0 4cbe 8a0e 003f 389c 773e
00000020: 0af4 94bd 242d 39bf

16.running_var f4 [10]
0.007993157 0.03687077 0.0028772247 0.013399068 0.0020288513 0.012206823 0.011203118 0.0253511
0.010270344 0.024354106
00000000: bbf5 023c ce05 173d d28f 3c3b c487 5b3c
00000010: 7af6 043b 20ff 473c 488d 373c 1cad cf3c
00000020: f244 283c 4382 c73c

18.weight f4 [10, 10]
0.03556684 -0.2753645 -0.25365904 0.015693894 -0.2715667 -0.25582692 -0.27554908 0.26402622
-0.14170976 0.13848278 0.058783673 -0.2350639 -0.28316134 -0.05016148 -0.10239324 -0.04647171
0.2019894 -0.018793829 -0.08394987 0.18458414 -0.16201481 0.040054653 0.22488017 0.068793826
-0.1466055 0.073092856 -0.09218684 -0.16290249 -0.11869018 -0.26592025 -0.26137424 -0.03377935
-0.03706333 -0.010318268 0.05865886 0.14189152 0.1516207 -0.0058281804 0.28761944 -0.077978976
0.022521613 -0.35444117 -0.09489523 -0.20846996 -0.22032978 0.058538303 0.12970737 0.16689603
-0.09739288 -0.11026177 -0.13208261 8.768948e-05 0.14522514 0.06169409 -0.18762104 -0.061021492
-0.22202612 -0.24864015 0.33494067 -0.13835743 0.045586 0.08529623 -0.3304828 -0.09246194
-0.10461874 -0.09512329 -0.04591436 -0.14825611 -0.2416789 -0.11035991 -0.16000362 -0.13475919
-0.33996513 -0.085599005 0.22950767 -0.0012423912 0.257139 0.14872646 0.30712715 0.07614979
-0.13694581 -0.19745798 -0.27273366 0.02686779 -0.25100425 0.23872027 0.2592175 -0.10574736
-0.050331805 0.22420898 0.07665194 -0.08058371 0.13022982 -0.01684823 -0.19832608 -0.121189676
-0.2434964 -0.13612561 0.24738236 -0.087215774
00000000: 89ae 113d 93fc 8cbe 99df 81be 7b90 803c
00000010: ca0a 8bbe bffb 82be c514 8dbe 722e 873e
00000020: 5d1c 11be 6ece 0d3e 26c7 703d 97b4 70be
00000030: 86fa 90be 2076 4dbd 8cb3 d1bd 1f59 3ebd
00000040: 4fd6 4e3e 84f5 99bc e9ed abbd a003 3d3e
00000050: 36e7 25be 5910 243d fd46 663e c7e3 8c3d
00000060: c11f 16be b5b1 953d 74cc bcbd e9cf 26be
00000070: d613 f3bd b326 88be d8d2 85be 375c 0abd
00000080: b8cf 17bd f40d 29bc 4644 703d 034c 113e
00000090: 7542 1b3e 52fa bebb db42 933e 71b3 9fbd
000000a0: 3f7f b83c 5079 b5be 6e58 c2bd 2679 55be
000000b0: 219e 61be dcc5 6f3d 02d2 043e cbe6 2a3e
000000c0: eb75 c7bd ecd0 e1bd aa40 07be eee5 b738
000000d0: e6b5 143e f1b2 7c3d bb1f 40be acf1 79bd
000000e0: d15a 63be 869b 7ebe 587d ab3e 92ad 0dbe
000000f0: 63b8 3a3d caaf ae3d 0b35 a9be b05c bdbd
00000100: 5a42 d6bd 00d0 c2bd b210 3cbd 73d0 17be
00000110: ac7a 77be 6004 e2bd fdd7 23be 50fe 09be
00000120: e90f aebe 884e afbd 0f04 6b3e bbd7 a2ba
00000130: b9a7 833e c04b 183e c53f 9d3e 6cf4 9b3d
00000140: 863b 0cbe 6d32 4abe bfa3 8bbe d719 dc3c
00000150: a183 80be 1673 743e 28b8 843e 1292 d8bd
00000160: b928 4ebd 0a97 653e b1fb 9c3d 1209 a5bd
00000170: f75a 053e 4d05 8abc fe15 4bbe 4b32 f8bd
00000180: 1f57 79be 8364 0bbe cd51 7d3e 2f9e b2bd

18.bias f4 [10]
-0.31282404 -0.32228035 0.24820668 0.16186598 -0.21960254 -0.078995846 0.18481609 -0.12185421
-0.084707364 -0.2541138
00000000: 792a a0be ee01 a5be e429 7e3e 32c0 253e
00000010: 7ddf 60be 93c8 a1bd 6e40 3d3e b38e f9bd
00000020: 0e7b adbd 341b 82be

19.weight f4 [10]
1.1422297 1.1193488 1.0456278 0.8954325 1.0811621 0.9707001 0.99956733 0.92968976
1.0875037 1.0978279
00000000: 9534 923f d246 8f3f 22d7 853f 103b 653f
00000010: 8563 8a3f cd7f 783f a5e3 7f3f 2600 6e3f
00000020: 5233 8b3f a085 8c3f

19.bias f4 [10]
-0.33894768 -0.4324673 -0.24413365 0.36384508 -0.2778708 -0.5990277 0.4821219 0.24540181
0.10883517 0.6643265
00000000: 8d8a adbe 5b6c ddbe 2cfe 79be e749 ba3e
00000010: 1545 8ebe e159 19bf afd8 f63e 9d4a 7b3e
00000020: f9e4 de3d 4d11 2a3f

19.running_mean f4 [10]
-0.8970597 -0.49559653 -0.07961274 0.31921297 -0.6219113 -0.3299687 -0.3507009 0.12966414
-0.21440025 -0.51939005
00000000: b4a5 65bf d4be fdbe 010c a3bd e26f a33e
00000010: 9435 1fbf a8f1 a8be 128f b3be adc6 043e
00000020: bd8b 5bbe bff6 04bf

19.running_var f4 [10]
0.011014092 0.016168028 0.013553243 0.003922902 0.01447192 0.016208502 0.017346323 0.014482222
0.0134254815 0.011525078
00000000: 7374 343c d072 843c 6c0e 5e3c b08b 803b
00000010: a21b 6d3c b1c7 843c e019 8e3c d746 6d3c
00000020: 8df6 5b3c aed3 3c3c

21.weight f4 [10, 10]
0.17139024 -0.002975091 -0.2085736 -0.2082078 -0.22682694 0.20979549 -0.24510098 -0.04026195
0.08869748 -0.16013524 0.1604065 0.21573994 -0.19169986 0.19835694 -0.23146884 0.2481672
-0.060671665 -0.1450905 -0.090907425 -0.24618986 0.43252942 -0.14895377 -0.0042241043 -0.24760744
0.34566548 -0.059437934 -0.17046486 0.26598072 0.008612587 -0.09078553 0.26059014 0.28114828
0.2850525 -0.10794186 0.01778007 -0.15938245 -0.109266445 -0.28314915 -0.26014483 0.31825197
0.02843924 -0.1374722 -0.26025754 0.19924763 -0.0904727 -0.14067537 -0.37414622 0.16845278
-0.036495358 -0.2626467 0.2895908 0.10550694 0.078826174 -0.22126397 0.16886427 -0.058762603
0.20927194 0.1349843 -0.3447261 0.018213635 -0.18634924 0.25137082 0.11047729 -0.35873708
-0.18426213 -0.25494412 0.17375064 -0.1420351 -0.17816944 0.26886398 0.007415885 0.09348289
0.26985112 -0.01400856 0.12142493 -0.02850127 0.00026535522 -0.13055553 -0.06759699 -0.23729807
-0.12725051 -0.08046908 -0.4054671 -0.109065995 -0.15879856 -0.23549958 0.103409275 0.2556603
-0.2632402 -0.12720783 -0.06356356 -0.17057404 -0.08204256 -0.2026119 -0.22878277 0.22724544
0.17956848 0.16418925 0.17025821 -0.20770644
00000000: ec80 2f3e bff9 42bb 5194 55be 6d34 55be
00000010: 5245 68be a1d4 563e c0fb 7abe b7e9 24bd
00000020: 06a7 b53d 7efa 23be 9a41 243e eeea 5c3e
00000030: f84c 44be 151e 4b3e 2b06 6dbe 8b1f 7e3e
00000040: da82 78bd 9b92 14be ac2d babd 3219 7cbe
00000050: 7f74 dd3e 5687 18be 5b6a 8abb ce8c 7dbe
00000060: 11fb b03e 3175 73bd 578e 2ebe a02e 883e
00000070: cf1b 0d3c c4ed b9bd 126c 853e abf2 8f3e
00000080: 67f2 913e 9f10 ddbd 82a7 913c 2735 23be
00000090: 16c7 dfbd edf8 90be b431 85be ecf1 a23e
000000a0: 69f9 e83c 83c5 0cbe 7a40 85be 9207 4c3e
000000b0: c049 b9bd 340d 10be 1890 bfbe e37e 2c3e
000000c0: 287c 15bd a179 86be 3f45 943e 0614 d83d
000000d0: 9e6f a13d 0693 62be c1ea 2c3e 0eb1 70bd
000000e0: 624b 563e 5339 0a3e f07f b0be c334 953c
000000f0: 56d2 3ebe adb3 803e eb41 e23d 63ac b7be
00000100: 36af 3cbe 0988 82be b0eb 313e a671 11be
00000110: 0d72 36be 8aa8 893e f400 f33b f573 bf3d
00000120: ed29 8a3e 2984 65bc a2ad f83d 7f7b e9bc
00000130: 601f 8b39 59b0 05be 4a70 8abd 44fe 72be
00000140: f54d 02be f9cc a4bd 6299 cfbe fe5d dfbd
00000150: 179c 22be cd26 71be 3ec8 d33d e8e5 823e
00000160: 6bc7 86be c542 02be 9d2d 82bd f6aa 2ebe
00000170: ee05 a8bd 7e79 4fbe 0846 6abe 07b3 683e
00000180: cde0 373e 3a21 283e 2b58 2e3e ffb0 54be

21.bias f4 [10]
-0.1111037 -0.18224628 -0.12030656 0.2116685 -0.24430573 0.21346264 -0.20514731 0.080045834
-0.15494405 0.007855761
00000000: 568a e3bd c59e 3abe 4963 f6bd a1bf 583e
00000010: 482b 7abe f395 5a3e 2312 52be 12ef a33d
00000020: a7a9 1ebe 73b5 003c

22.weight f4 [10]
1.0188262 1.2706077 1.025046 0.9507028 1.1050854 1.0744934 1.0082607 1.2977948
1.0623902 1.0445133
00000000: e668 823f 46a3 a23f b534 833f 4261 733f
00000010: 7073 8d3f 0089 893f b00e 813f 241e a63f
00000020: 67fc 873f 9db2 853f

22.bias f4 [10]
-0.14950171 0.2986861 -0.2680867 0.18939108 0.58608073 -0.49387157 0.23858932 0.60146374
0.39050585 -0.0034572142
00000000: fa16 19be 62ed 983e a942 89be bcef 413e
00000010: 6309 163f bcdc fcbe c250 743e 87f9 193f
00000020: 62f0 c73e 6e92 62bb

22.running_mean f4 [10]
-0.49636465 -0.32231903 -0.01697353 0.30020258 -0.7024521 0.37653252 -0.41297564 0.023035046
-0.66486466 -0.10447563
00000000: 8223 febe 0007 a5be 130c 8bbc 27b4 993e
00000010: e7d3 33bf dfc8 c03e 8b71 d3be feb3 bc3c
00000020: 9234 2abf 52f7 d5bd

22.running_var f4 [10]
0.0050199293 0.0013922742 0.036280416 0.011231003 0.025338389 0.011107088 0.019078085 0.007910371
0.017493444 0.0047878544
00000000: 387e a43b f87c b63a c69a 143d 3e02 383c
00000010: 7492 cf3c 81fa 353c a549 9c3c 809a 013c
00000020: 694e 8f3c 6fe3 9c3b

24.weight f4 [10, 10]
0.060087446 -0.010647733 -0.11651044 -0.12460492 0.11333664 -0.07743631 0.065441065 -0.06152449
0.19606547 -0.01851472 0.14170802 0.13587509 -0.24147545 0.15389942 -0.25048205 0.18250036
-0.22482707 0.36495075 0.23715623 0.07495371 -0.21579598 0.19111313 0.27394852 0.24338584
-0.034576315 -0.24180968 0.28107706 0.17779382 0.124100626 -0.22799616 0.1822521 -0.06707419
-0.18845299 -0.092772216 0.1765604 -0.35304853 -0.15525973 0.09823207 0.019467385 0.08646021
-0.024310723 -0.104221806 0.16352832 -0.091113396 -0.09838395 -0.2661571 0.054076348 0.35555738
0.21257839 -0.04472296 -0.12006187 0.21216202 0.2884395 -0.15228602 0.04973556 -0.06973868
-0.20662479 -0.044288445 0.105887964 0.12658942 0.0833259 0.050886787 0.15884355 0.19157782
-0.2043416 -0.28797337 -0.16156803 0.25354713 0.24733897 0.13670927 0.20867868 -0.3188855
0.052113034 -0.29304653 -0.2594327 -0.36573908 -0.1425054 -0.22997421 0.13261537 -0.2935744
0.13893099 0.27611867 -0.19255076 -0.12035729 -0.09687565 -0.29874068 -0.23343942 0.2477065
-0.040044643 -0.06510278 0.23497489 0.012423852 -0.012725429 -0.11291867 -0.10463539 0.113347776
-0.20181681 0.14545071 -0.18974318 0.11783666
00000000: 411e 763d d473 2ebc 079d eebd dd30 ffbd
00000010: 0a1d e83d ee96 9ebd f705 863d 1b01 7cbd
00000020: 63c5 483e 2fac 97bc e81b 113e d722 0b3e
00000030: 5745 77be cf97 1d3e 2f3f 80be 60e1 3a3e
00000040: 1139 66be d3da ba3e 15d9 723e 5581 993d
00000050: 9ff9 5cbe 29b3 433e fb42 8c3e 233a 793e
00000060: e59f 0dbd f59c 77be 55e9 8f3e 950f 363e
00000070: 7828 fe3d d377 69be 4ba0 3a3e 315e 89bd
00000080: d2f9 40be 5cff bdbd 40cc 343e c7c2 b4be
00000090: 68fc 1ebe e52d c93d 117a 9f3c 0d12 b13d
000000a0: 4827 c7bc 3e72 d5bd f873 273e a999 babd
000000b0: 867d c9bd be45 88be 297f 5d3d 9e0b b63e
000000c0: 26ae 593e 6c2f 37bd ffe2 f5bd 0041 593e
000000d0: 58ae 933e def0 1bbe 84b7 4b3d 27d3 8ebd
000000e0: 7395 53be cd67 35bd cadb d83d a8a0 013e
000000f0: c5a6 aa3d aa6e 503d e2a7 223e fa2c 443e
00000100: ed3e 51be 3f71 93be 1772 25be eed0 813e
00000110: 6d46 7d3e 84fd 0b3e ddaf 553e f644 a3be
00000120: 7a74 553d 320a 96be 5dd4 84be 2742 bbbe
00000130: f0ec 11be 5c7e 6bbe 53cc 073e 624f 96be
00000140: ed43 0e3e 6d5f 8d3e 072c 45be e27d f6bd
00000150: be66 c6bd 8af4 98be be0a 6fbe c6a6 7d3e
00000160: da05 24bd 9b54 85bd 429d 703e 6a8d 4b3c
00000170: 517e 50bc e741 e7bd 144b d6bd e122 e83d
00000180: 11a9 4ebe 08f1 143e 094c 42be 5954 f13d

24.bias f4 [10]
-0.288843 -0.078551434 -0.055962354 0.037523434 -0.06967415 0.23723467 0.021126138 -0.045129783
-0.26932278 0.14767471
00000000: 3be3 93be 93df a0bd c838 65bd 2cb2 193d
00000010: 52b1 8ebd a5ed 723e b910 ad3c 02da 38bd
00000020: ade4 89be 0a38 173e

25.weight f4 [10]
1.085723 1.2103935 1.2213209 1.1444017 1.1287963 1.2552484 1.0918571 1.0738299
1.1651841 1.3210344
00000000: f9f8 8a3f 2dee 9a3f 3e54 9c3f c17b 923f
00000010: 667c 903f fbab a03f f9c1 8b3f 4273 893f
00000020: c124 953f a817 a93f

25.bias f4 [10]
-0.25629315 0.11443568 0.3745843 0.17666022 0.6323171 -0.4469303 -0.29007897 -0.09259923
-0.5458836 0.10368467
00000000: db38 83be 415d ea3d 83c9 bf3e 6be6 343e
00000010: 89df 213f 0cd4 e4be 3b85 94be aaa4 bdbd
00000020: 07bf 0bbf a158 d43d

25.running_mean f4 [10]
-0.24397616 0.23639874 0.30055782 -0.051041614 0.06177285 0.33337334 0.30110955 -0.85278714
-0.4111347 0.107632056
00000000: e3d4 79be 8312 723e b7e2 993e 0311 51bd
00000010: 8705 7d3d e9af aa3e 082b 9a3e 4250 5abf
00000020: 3f80 d2be 326e dc3d

25.running_var f4 [10]
0.009126541 0.008725723 0.006022604 0.018343307 0.012556626 0.018235477 0.004330921 0.015498691
0.01717993 0.0056456816
00000000: 7d87 153c 56f6 0e3c 4459 c53b b444 963c
00000010: 4fba 4d3c 9162 953c 66ea 8d3b 39ee 7d3c
00000020: edbc 8c3c 69ff b83b

27.weight f4 [10, 10]
-0.036075763 0.043442085 -0.17433357 -0.08742098 -0.19909784 0.29788774 0.12814093 0.07140197
-0.020977262 0.09740111 -0.19993363 0.030253394 -0.18341275 0.18162759 -0.11875236 0.022253903
-0.089099795 -0.26746196 0.19905028 -0.01379104 0.10603022 0.18461467 -0.21536425 -0.019320086
-0.14287178 0.16693865 0.18147455 -0.04488896 -0.3865416 -0.34612635 0.19698837 0.03159096
-0.049060807 -0.06280804 0.28616098 -0.03541221 -0.0036936007 0.15469925 -0.18417116 0.17988576
0.064459205 0.05592369 0.08058933 0.10162687 -0.04562342 -0.21987583 -0.29006082 0.034342878
0.090334624 0.26037994 -0.14095218 -0.24421649 0.2652178 -0.2833025 0.035968706 0.30055785
0.18497755 -0.22589676 0.21102232 -0.046309672 0.017298732 -0.53187954 0.030112686 0.06869103
0.107651256 -0.0951338 -0.29899025 -0.097394176 -0.11231628 0.1135412 0.15249187 -0.21034381
-0.0023095915 0.27319112 0.15049306 -0.26043758 0.1684768 -0.030152192 0.12321348 -0.1664386
0.19672136 -0.06596587 0.16721745 -0.23764378 -0.103309475 -0.14614373 -0.004063315 0.120092556
0.15896262 0.14137535 -0.012845086 0.32227144 0.012580485 -0.13835286 0.19074745 -0.20596656
-0.046881203 -0.5095501 -0.119579725 0.07211685
00000000: 2ec4 13bd 54f0 313d 8084 32be c509 b3bd
00000010: 4ee0 4bbe be84 983e 6037 033e 323b 923d
00000020: 82d8 abbc 3c7a c73d 67bb 4cbe f7d5 f73c
00000030: 8dd0 3bbe 95fc 393e 7034 f3bd d14d b63c
00000040: f479 b6bd c6f0 88be d6d3 4b3e d0f3 61bc
00000050: 5f26 d93d a10b 3d3e 7288 5cbe 2845 9ebc
00000060: fb4c 12be f7f1 2a3e 77d4 393e 7cdd 37bd
00000070: c8e8 c5be 7937 b1be 52b7 493e 8665 013d
00000080: fcf3 48bd 80a1 80bd b183 923e 650c 11bd
00000090: 5610 72bb 7b69 1e3e 5d97 3cbe f933 383e
000000a0: 3003 843d 3d10 653d 050c a53d c021 d03d
000000b0: a0df 3abd 2127 61be da82 94be 1eab 0c3d
000000c0: 5c01 b93d 8550 853e c555 10be e313 7abe
000000d0: a1ca 873e 060d 91be ec53 133d b8e2 993e
000000e0: c16a 3d3e 7b51 67be 3c16 583e 36af 3dbd
000000f0: 12b6 8d3c 4229 08bf e1ae f63c e2ad 8c3d
00000100: 4378 dc3d 82d5 c2bd 4015 99be 9976 c7bd
00000110: 1406 e6bd 4a88 e83d d426 1c3e 5e64 57be
00000120: 845c 17bb b5df 8b3e da1a 1a3e 1358 85be
00000130: 2f85 2c3e bb01 f7bc 5957 fc3d e16e 2abe
00000140: 5371 493e 1d19 87bd 0d3b 2b3e e458 73be
00000150: eb93 d3bd b4a6 15be 8f25 85bb 16f3 f53d
00000160: 19c7 223e b3c4 103e 3274 52bc c300 a53e
00000170: 611e 4e3c 5fac 0dbe 4d53 433e e6e8 52be
00000180: 8106 40bd e071 02bf 37e6 f4bd 00b2 933d

27.bias f4 [10]
-0.3662899 -0.70599145 -0.04890274 0.588115 -0.13265444 0.10953941 -0.018290656 0.5509527
-0.5555316 -0.041606747
00000000: 5a8a bbbe dbbb 34bf 3d4e 48bd b48e 163f
00000010: 91d6 07be 3356 e03d 49d6 95bc 3c0b 0d3f
00000020: 5237 0ebf d66b 2abd

28.weight f4 [10]
4.4051576 4.248403 4.1700006 4.415555 4.1912107 4.5377355 4.2926893 4.2592874
4.211231 4.416693
00000000: 0df7 8c40 ebf2 8740 a570 8540 3a4c 8d40
00000010: 661e 8640 2135 9140 b65d 8940 154c 8840
00000020: 68c2 8640 8d55 8d40

28.bias f4 [10]
0.30773684 -0.33103067 0.46536544 0.27268794 -0.33678252 -0.058665045 -0.18447047 0.4424203
0.3546796 -0.023346802
00000000: af8f 9d3e da7c a9be 6144 ee3e c19d 8b3e
00000010: c26e acbe c24a 70bd d4e5 3cbe ea84 e23e
00000020: 9198 b53e cb41 bfbc

28.running_mean f4 [10]
-0.37461406 -0.94871914 -0.33567205 0.891164 -0.030670768 0.09447217 -0.3689055 0.6649003
-0.46602938 -0.1870169
00000000: 6acd bfbe 42df 72bf 35dd abbe 5323 643f
00000010: 4341 fbbc a07a c13d 2fe1 bcbe e836 2a3f
00000020: 679b eebe 5c81 3fbe

28.running_var f4 [10]
0.012064106 0.009424707 0.01731489 0.006261262 0.0036383616 0.013684151 0.023162834 0.0282314
0.0022355202 0.062089603
00000000: 87a8 453c 166a 1a3c f5d7 8d3c 462b cd3b
00000010: 9471 6e3b 7d33 603c fcbf bd3c 8945 e73c
00000020: ce81 123b ab51 7e3d

30.weight f4 [10, 10]
1.0298123 -2.5189602 -3.4314528 1.5449244 -2.6985223 1.548324 -1.9386283 0.83650297
0.67839146 -3.1300085 1.0221736 0.8911469 1.0088437 -2.7443128 1.4170645 -3.1948533
-2.2329834 -3.2167037 1.142458 1.1297268 -2.1006758 -2.3631847 1.274427 0.43715113
-0.7661363 -1.3033495 1.3952696 0.37220258 0.9219311 -0.9200131 -3.108868 -1.884259
1.5584753 1.1533933 -1.8768173 -1.899507 -2.845033 1.6497256 -2.9320805 1.8412718
1.3414961 1.5699884 1.5704387 -2.7086222 -2.7855532 -2.022038 0.9526473 1.2800498
-3.1784453 -2.9263222 0.32787004 -0.26566866 0.2646949 0.7007126 -0.64011234 1.2662135
-1.5064628 -1.1799295 -2.0170379 0.9170228 1.1164906 -2.5270083 1.1731266 -3.0775447
-2.4786484 1.8050334 1.5490783 -3.0264122 1.3542633 -2.312932 -2.93125 1.6096569
-2.7150843 -3.1210284 0.9537753 1.4492944 -2.3243914 1.6288233 0.48213592 0.6934752
-2.6880825 -2.4941971 -1.9525332 1.2891281 1.6512808 0.95765084 0.73624194 -3.1405237
0.8475907 1.4743353 0.28031084 1.1753404 -3.465731 1.3807577 1.8632404 -2.603412
1.1268278 0.44646105 -3.0083857 -1.7104836
00000000: e4d0 833f a536 21c0 ec9c 5bc0 15c0 c53f
00000010: 97b4 2cc0 7b2f c63f f924 f8bf 0f25 563f
00000020: 10ab 2d3f 0f52 48c0 96d6 823f 3422 643f
00000030: ca21 813f d2a2 2fc0 5f62 b53f 7a78 4cc0
00000040: 33e9 0ec0 79de 4dc0 103c 923f e39a 903f
00000050: 7971 06c0 6b3e 17c0 6d20 a33f 46d2 df3e
00000060: 8221 44bf 28d4 a6bf 3298 b23f 5691 be3e
00000070: ad03 6c3f fb85 6bbf b1f7 46c0 662f f1bf
00000080: 1e7c c73f 64a2 933f 8d3b f0bf 0c23 f3bf
00000090: 0515 36c0 352a d33f 35a7 3bc0 cbae eb3f
000000a0: 25b6 ab3f 61f5 c83f 2304 c93f 115a 2dc0
000000b0: 8146 32c0 1269 01c0 b2e0 733f acd8 a33f
000000c0: a66b 4bc0 dd48 3bc0 95de a73e b905 88be
000000d0: 1786 873e e761 333f 67de 23bf 4913 a23f
000000e0: c6d3 c0bf ee07 97bf 2617 01c0 02c2 6a3f
000000f0: 2ae9 8e3f 81ba 21c0 0329 963f 7ef6 44c0
00000100: 2da2 1ec0 560b e73f 3348 c63f bdb0 41c0
00000110: 8058 ad3f 1407 14c0 9a99 3bc0 3d09 ce3f
00000120: f1c3 2dc0 eebe 47c0 9e2a 743f 7b82 b93f
00000130: d4c2 14c0 487d d03f 85da f63e 9787 313f
00000140: 8b09 2cc0 eda0 1fc0 9cec f9bf 2602 a53f
00000150: 2b5d d33f 9b28 753f 5a7a 3c3f 57fe 48c0
00000160: b4fb 583f 05b7 bc3f e784 8f3e 8e71 963f
00000170: 89ce 5dc0 abbc b03f a97e ee3f 4d9e 26c0
00000180: e53b 903f 8b96 e43e 6489 40c0 20f1 dabf

30.bias f4 [10]
0.48531362 -0.38625553 -0.15431035 0.4084237 -0.33470136 0.094988495 -0.25297534 -0.13496347
-0.59479284 -0.27685785
00000000: 077b f83e 49c3 c5be 8803 1ebe e91c d13e
00000010: fa5d abbe 5489 c23d fc85 81be dd33 0abe
00000020: 5844 18bf 50c0 8dbe
